annotator/static/models/80_62388f8bc3f2c6a63cc03ec1.pth (torch, 65879 bytes, 3 tensors)

cnn_model.0.weight f4 [10, 1, 39, 41]
0.22974354 0.1623551 0.21720745 0.17398734 0.14298159 0.13705607 0.1259804 0.18399979
0.23093696 0.2133795 0.23098028 0.24223284 0.27525362 0.25896823 0.27644813 0.24146016
0.20056604 0.2273016 0.22424756 0.22327125 0.19918717 0.18280561 0.22861934 0.21163213
0.22186211 0.17902358 0.14709237 0.19121417 0.171189 0.11595946 0.14646462 0.18490341
0.14465226 0.14109579 0.192577 0.15097362 0.2078252 0.17760627 0.19090128 0.21935229
0.20405003 0.21706697 0.16286756 0.101526104 0.10992316 0.07549895 0.06529299 0.10526123
0.13470033 0.14363502 0.10680658 0.16647741 0.13972364 0.14902833 0.2102159 0.21043149
0.20852576 0.17527294 0.17627442 0.16675109 0.21852785 0.13290584 0.20158188 0.1437425
0.15099205 0.12368751 0.09077753 0.09614654 0.13321202 0.10090575 0.10418434 0.10887659
0.1290377 0.0658883 0.12648892 0.06841611 0.09264272 0.0866237 0.15787439 0.15592742
0.123317875 0.20193441 0.27285588 0.11900646 0.10656186 0.12498471 0.1295401 0.10032922
0.07866254 0.09139316 0.14748065 0.1006492 0.13611636 0.09424878 0.18474007 0.19531976
0.1671354 0.15722536 0.14771485 0.18475163 0.17075796 0.19278474 0.17718117 0.107903205
0.14722331 0.13946414 0.13155085 0.12526019 0.07875005 0.04807602 0.05854531 0.09125513
0.0824172 0.11194325 0.10426002 0.09223019 0.08817656 0.073651366 0.13982485 0.14593035
0.09891496 0.13840137 0.1409691 0.18303014 0.15968119 0.037554912 0.09386996 0.088187754
0.09160232 0.11733244 0.07842717 0.12015833 0.11712249 0.1780807 0.10168259 0.13997844
0.13697208 0.17847985 0.20162143 0.18843748 0.18811344 0.16177283 0.19633198 0.2097658
0.13384104 0.10357232 0.10590369 0.17688201 0.11556347 0.11186769 0.054000948 0.09175205
0.04592681 0.06789607 0.11977763 0.093076855 0.087246 0.104357004 0.09486664 0.10863129
0.08587841 0.09635727 0.071389556 0.12051919 0.13309385 0.08540219 0.09996239 0.06554388
0.091986515 0.070032366 0.04061329 0.09676422 0.0860993 0.124759234 0.09931259 0.11232411
0.19135253 0.1659775 0.1703298 0.18862174 0.20611873 0.23989703 0.16199717 0.1758922
0.1470407 0.183874 0.1494445 0.17241216 0.09708675 0.093383506 0.105365254 0.100642435
0.08593459 0.09950972 0.09905915 0.09061976 0.08884611 0.14041135 0.095046714 0.109271236
0.116131246 0.12973535 0.10757139 0.14884928 0.15588786 0.19160831 0.08190742 0.06912095
0.0888229 0.12863562 0.09410674 0.058310103 0.0881812 0.15192384 0.10871036 0.18070233
0.2253532 0.20026147 0.15735532 0.14552087 0.19713037 0.17250925 0.1782002 0.17418675
0.16983986 0.1465029 0.18793274 0.17127918 0.09922804 0.109178856 0.09737794 0.0802184
0.09105116 0.09550543 0.105375625 0.10336374 0.13216835 0.10123474 0.16881256 0.10117723
0.122655325 0.13708784 0.12937094 0.15292266 0.12916112 0.17609006 0.22297497 0.063356526
0.121773876 0.12239447 0.080522716 0.09038452 0.071438126 0.11732511 0.120793335 0.12706038
00000000: e441 6b3e 6a40 263e a16b 5e3e bd29 323e
00000010: c469 123e 6d58 0c3e 0201 013e 716a 3c3e
00000020: bd7a 6c3e 2880 5a3e 1886 6c3e e30b 783e
00000030: 0bee 8c3e 7c97 843e 9c8a 8d3e 5541 773e
00000040: 2f61 4d3e c0c1 683e 27a1 653e 38a1 643e
00000050: b9f7 4b3e 6531 3b3e 301b 6a3e 18b6 583e
00000060: d22f 633e f551 373e 629f 163e a6cd 433e
00000070: 2b4c 2f3e 277c ed3d d2fa 153e 5257 3d3e
00000080: b91f 143e 6a7b 103e e832 453e d498 1a3e
00000090: 21d0 543e 6bde 353e a07b 433e e39d 603e
000000a0: 7ef2 503e ce46 5e3e c1c6 263e ebec cf3d
000000b0: 651f e13d 329f 9a3d 55b8 853d 3393 d73d
000000c0: e2ee 093e 0f15 133e 69bd da3d 0e79 2a3e
000000d0: b713 0f3e e29a 183e d642 573e 5a7b 573e
000000e0: c787 553e c07a 333e 4881 343e ccc0 2a3e
000000f0: c4c5 5f3e 7818 083e 7b6b 4e3e 3c31 133e
00000100: a99d 1a3e e14f fd3d 92e9 b93d 7ae8 c43d
00000110: bb68 083e ada7 ce3d 995e d53d b1fa de3d
00000120: 7522 043e 72f0 863d 5086 013e bf1d 8c3d
00000130: 77bb bd3d c467 b13d d3a9 213e 70ab 1f3e
00000140: 158e fc3d e5c7 4e3e c4b3 8b3e a9b9 f33d
00000150: 1b3d da3d fcf7 ff3d 29a6 043e 6879 cd3d
00000160: d319 a13d 562c bb3d 2b05 173e 2b21 ce3d
00000170: 1662 0b3e 8105 c13d 802c 3d3e e701 483e
00000180: 8b25 2b3e afff 203e 9042 173e 882f 3d3e
00000190: 2ddb 2e3e 5d69 453e fb6e 353e 5bfc dc3d
000001a0: b5c1 163e b0cf 0e3e 44b5 063e 3544 003e
000001b0: b547 a13d 5ceb 443d 35cd 6f3d f8e3 ba3d
000001c0: 59ca a83d 8142 e53d 4786 d53d 2fe3 bc3d
000001d0: ea95 b43d 87d6 963d 3f2e 0f3e c46e 153e
000001e0: ed93 ca3d 17b9 0d3e 345a 103e 416c 3b3e
000001f0: 7783 233e 2ed3 193d e53e c03d c89b b43d
00000200: ff99 bb3d fe4b f03d 6d9e a03d 9215 f63d
00000210: ebdd ef3d c95a 363e f63e d03d 8256 0f3e
00000220: 6942 0c3e 6cc3 363e d975 4e3e c1f5 403e
00000230: cfa0 403e c7a7 253e 400b 493e d9cc 563e
00000240: a00d 093e b91d d43d 09e4 d83d 8f20 353e
00000250: 8aac ec3d e31a e53d 1930 5d3d 80e8 bb3d
00000260: c01d 3c3d 180d 8b3d f94d f53d 149f be3d
00000270: 08ae b23d 20b9 d53d 7149 c23d 157a de3d
00000280: 05e1 af3d f656 c53d b034 923d c4d2 f63d
00000290: c149 083e 58e7 ae3d 15b9 cc3d df3b 863d
000002a0: 6d63 bc3d 216d 8f3d 1f5a 263d 522c c63d
000002b0: d454 b03d c581 ff3d 6664 cb3d 2f0a e63d
000002c0: ebf1 433e 01f6 293e ef6a 2e3e 0f26 413e
000002d0: ca10 533e 91a7 753e 96e2 253e 161d 343e
000002e0: d691 163e 7749 3c3e fb07 193e d08c 303e
000002f0: 6bd5 c63d da3f bf3d bdc9 d73d 9f1d ce3d
00000300: 79fe af3d c1cb cb3d 86df ca3d da96 b93d
00000310: f3f4 b53d fec7 0f3e daa7 c23d 99c9 df3d
00000320: 38d6 ed3d 58d9 043e 644e dc3d f26b 183e
00000330: 11a1 1f3e f834 443e 14bf a73d 498f 8d3d
00000340: c8e8 b53d 0eb9 033e 09bb c03d 93d6 6e3d
00000350: 5898 b43d ec91 1b3e 8aa3 de3d 080a 393e
00000360: fdc2 663e 5811 4d3e c121 213e 6c03 153e
00000370: 8bdc 493e 44a6 303e 1d7a 363e 035e 323e
00000380: 80ea 2d3e db04 163e 7171 403e cf63 2f3e
00000390: 1238 cb3d 2a99 df3d 166e c73d 8b49 a43d
000003a0: 0879 ba3d 5a98 c33d 2dcf d73d 5eb0 d33d
000003b0: 2457 073e 2954 cf3d 33dd 2c3e 0236 cf3d
000003c0: b732 fb3d c160 0c3e d179 043e c297 1c3e
000003d0: d042 043e f450 343e 8d53 643e 11c1 813d
000003e0: 9564 f93d f4a9 fa3d 18e9 a43d 851b b93d
000003f0: 274e 923d 2648 f03d 7f62 f73d 1e1c 023e

cnn_model.0.bias f4 [10]
0.04646219 0.08789013 0.07783885 -0.007719901 0.078102045 0.016680492 0.0040330426 1.2244396
-0.018489912 -0.010581786
00000000: 234f 3e3d beff b33d fa69 9f3d 39f7 fcbb
00000010: f7f3 9f3d 87a5 883c 9d27 843b 70ba 9c3f
00000020: 2878 97bc 3a5f 2dbc

cnn_model.2.weight f4 [1, 10, 1, 1]
-1.1777782 -1.2123766 -1.2324241 0.18517499 -1.2546765 -0.6713634 0.023145694 1.5455285
0.26646778 0.181495
00000000: 70c1 96bf 282f 9bbf 13c0 9dbf 839e 3d3e
00000010: 3d99 a0bf 79de 2bbf 0a9c bd3c e1d3 c53f
00000020: 776e 883e d3d9 393e
