annotator/static/models/abhilash.t_623b0f55617f2639f1bdac7b.pth (torch, 66519 bytes, 3 tensors)

cnn_model.0.weight f4 [10, 1, 17, 95]
-0.84226346 -0.82648355 -0.85530823 -0.76286995 -0.8404191 -0.80836594 -0.8061482 -0.8221473
-0.7669011 -0.8372329 -0.7760651 -0.8268218 -0.7797319 -0.8249731 -0.7613752 -0.82951546
-0.9880608 -0.9799415 -0.9566514 -0.98744 -0.98550713 -0.71999127 -0.6932289 -0.7042852
-0.6763796 -0.6814092 -0.6358525 -0.68441796 -0.69770455 -0.6589709 -0.6694269 -0.69455266
-0.64554167 -0.6979367 -0.7404947 -0.6914814 -0.66569066 -0.80387044 -0.85294086 -0.8007488
-0.80312973 -0.7767906 -0.68906564 -0.6638781 -0.6880842 -0.69336706 -0.682034 -0.6353426
-0.67984015 -0.6881681 -0.6614337 -0.6737352 -0.661285 -0.9740877 -0.93659985 -0.94433117
-0.9569014 -0.966277 -0.90204436 -0.92392623 -0.9369847 -0.9222134 -0.9403929 -0.8510931
-0.97315925 -0.75930715 -0.8262658 -0.7283873 -0.88934445 -0.7980862 -0.76266736 -0.6716563
-0.80867517 -0.7703371 -0.76201594 -0.7919412 -0.76692104 -0.7304935 -0.7845635 -0.7540739
-0.80947953 -0.7248436 -0.79345846 -0.75861955 -0.8016457 -0.73667586 -0.6760068 -0.66384655
-0.6799902 -0.69742066 -0.709927 -0.6571616 -0.7682476 -0.7133682 0.28157055 -0.82121074
-0.6973622 -0.6270944 -0.739976 -0.70750713 -0.7731298 -0.74624854 -0.6663091 -0.8556607
-0.7849029 -0.74165636 -0.682429 -0.72097445 -0.7530191 -0.79173106 -0.74212193 -1.0367142
-0.96642375 -0.95670146 -1.0253371 -0.98662853 -0.602635 -0.5338169 -0.4461436 -0.52704185
-0.48274785 -0.533489 -0.51647526 -0.49940088 -0.638635 -0.6146473 -0.5306508 -0.5162382
-0.5333237 -0.55123395 -0.58373284 -0.5724704 -0.8597828 -0.7478559 -0.7964717 -0.8280706
-0.7760372 -0.4512602 -0.44742545 -0.3299492 -0.43589747 -0.43793762 -0.49956128 -0.47710398
-0.44803137 -0.56876284 -0.476718 -0.43953794 -0.95095235 -0.8581597 -0.89032227 -0.96481335
-0.91024977 -0.95631355 -0.9491917 -0.9891999 -0.93736166 -0.8938101 -0.9193304 -0.90006906
-0.3550271 -0.5031133 -0.72130185 -0.5195839 -0.5899802 -0.47401097 -0.6728505 -0.5261291
-0.3811914 -0.7047325 -0.63121194 -0.6152532 -0.7036868 -0.62711835 -0.6508032 -0.7244393
-0.6185742 -0.6554738 -0.74357074 -0.7591327 -0.6141184 -0.57831794 -0.5339448 -0.49445337
-0.4601325 -0.6060019 -0.49609825 -0.4985184 -0.5777572 0.35936987 -0.7396005 -0.6541134
-0.7300912 -0.6486725 -0.76007485 -0.76546764 -0.6640083 -0.79181284 -0.7817492 -0.8488419
-0.7795777 -0.65442806 -0.6307279 -0.63480365 -0.7842833 -0.79124576 -1.0043621 -0.9862125
-0.9400955 -0.9399988 -0.97599363 -0.5158621 -0.47770044 -0.47241387 -0.4208211 -0.49109653
-0.57396775 -0.45156983 -0.5707247 -0.57165575 -0.58962333 -0.5230301 -0.48351744 -0.4025888
-0.47764006 -0.5332259 -0.5581158 -0.79014087 -0.8222434 -0.78298056 -0.77992487 -0.8019963
-0.3823346 -0.41643086 -0.38107467 -0.3635366 -0.4079178 -0.45100528 -0.3959484 -0.46308655
-0.4574332 -0.5194668 -0.3563105 -1.0280436 -0.8794401 -0.9548422 -0.8966445 -0.83755267
-0.91332966 -0.92310673 -0.9726717 -0.94054615 -0.844527 -0.8235562 -0.7377788 -0.6174208
00000000: 949e 57bf 6d94 53bf 7bf5 5abf 724b 43bf
00000010: b525 57bf 12f1 4ebf ba5f 4ebf 3f78 52bf
00000020: a153 44bf e554 56bf 34ac 46bf 98aa 53bf
00000030: 839c 47bf 7031 53bf 7ce9 42bf 205b 54bf
00000040: 8df1 7cbf 72dd 7abf 1be7 74bf dec8 7cbf
00000050: 324a 7cbf 5951 38bf 7377 31bf 094c 34bf
00000060: 3727 2dbf d570 2ebf 3bc7 22bf 0436 2fbf
00000070: c49c 32bf 51b2 28bf 905f 2bbf 34ce 31bf
00000080: 3842 25bf fbab 32bf 1091 3dbf ed04 31bf
00000090: b46a 2abf 74ca 4dbf 555a 5abf e0fd 4cbf
000000a0: e999 4dbf c0db 46bf 9b66 30bf eaf3 29bf
000000b0: 4926 30bf 8180 31bf c899 2ebf d0a5 22bf
000000c0: 010a 2ebf c92b 30bf b853 29bf e979 2cbf
000000d0: f949 29bf d05d 79bf 02c5 6fbf b0bf 71bf
000000e0: 7df7 74bf ee5d 77bf 61ec 66bf 6e86 6cbf
000000f0: 3bde 6fbf 2d16 6cbf 97bd 70bf 3de1 59bf
00000100: f720 79bf f461 42bf 2886 53bf 9777 3abf
00000110: 14ac 63bf 614f 4cbf 2b3e 43bf abf1 2bbf
00000120: 5605 4fbf d034 45bf 7a13 43bf a9bc 4abf
00000130: f054 44bf 9f01 3bbf 27d9 48bf fd0a 41bf
00000140: 0d3a 4fbf 5a8f 39bf 1820 4bbf e434 42bf
00000150: a738 4dbf ca96 3cbf c80e 2dbf d9f1 29bf
00000160: d613 2ebf 298a 32bf c7bd 35bf be3b 28bf
00000170: e0ab 44bf 4c9f 36bf 042a 903e de3a 52bf
00000180: 5486 32bf 4289 20bf 116f 3dbf 301f 35bf
00000190: d6eb 45bf 250a 3fbf 3c93 2abf 940c 5bbf
000001a0: 65ef 48bf 31dd 3dbf abb3 2ebf c891 38bf
000001b0: dcc5 40bf e3ae 4abf b4fb 3dbf 0db3 84bf
000001c0: 8c67 77bf 63ea 74bf 3f3e 83bf b093 7cbf
000001d0: 4a46 1abf 39a8 08bf ef6c e4be 37ec 06bf
000001e0: ba2a f7be bc92 08bf b937 04bf 79b1 ffbe
000001f0: 957d 23bf 8759 1dbf bbd8 07bf 3028 04bf
00000200: e787 08bf ab1d 0dbf 846f 15bf 6c8d 12bf
00000210: ba1a 5cbf 7c73 3fbf 92e5 4bbf 6ffc 53bf
00000220: 60aa 46bf 940b e7be f314 e5be 1aef a8be
00000230: f42d dfbe 5c39 e0be 7fc6 ffbe f946 f4be
00000240: 5e64 e5be 719a 11bf 6214 f4be 1e0b e1be
00000250: 9d71 73bf 5bb0 5bbf 29ec 63bf 02fe 76bf
00000260: 2106 69bf f7d0 74bf 3afe 72bf 343c 7dbf
00000270: eff6 6fbf bdd0 64bf 3d59 6bbf ed6a 66bf
00000280: 1dc6 b5be 09cc 00bf 3da7 38bf 7303 05bf
00000290: f108 17bf 91b1 f2be ee3f 2cbf 66b0 06bf
000002a0: 852b c3be 5969 34bf 1b97 21bf 3c81 1dbf
000002b0: d124 34bf d48a 20bf 0a9b 26bf db74 39bf
000002c0: e15a 1ebf 22cd 27bf a75a 3ebf 8556 42bf
000002d0: dd36 1dbf a50c 14bf 9bb0 08bf fe28 fdbe
000002e0: 7d96 ebbe f122 1bbf 9700 febe ce3d ffbe
000002f0: e5e7 13bf 54ff b73e 7556 3dbf fa73 27bf
00000300: 42e7 3abf 670f 26bf 4494 42bf b0f5 43bf
00000310: 73fc 29bf 3fb4 4abf b720 48bf b44d 59bf
00000320: 6792 47bf 9988 27bf 6277 21bf 7e82 22bf
00000330: cac6 48bf 158f 4abf f08e 80bf 6c78 7cbf
00000340: 19aa 70bf c3a3 70bf b8da 79bf 8a0f 04bf
00000350: 2795 f4be 3be0 f1be dd75 d7be 0171 fbbe
00000360: 8def 12bf 2934 e7be 041b 12bf 0858 12bf
00000370: 8ef1 16bf 4de5 05bf 998f f7be 1f20 cebe
00000380: 3d8d f4be 7e81 08bf ade0 0ebf ac46 4abf
00000390: 8b7e 52bf 6a71 48bf 28a9 47bf a14f 4dbf
000003a0: 5cc1 c3be 6d36 d5be 381c c3be 7821 babe
000003b0: 9ada d0be 2aea e6be c0b9 cabe ae19 edbe
000003c0: af34 eabe c7fb 04bf 546e b6be ef96 83bf
000003d0: fd22 61bf 8a70 74bf 7e8a 65bf da69 56bf
000003e0: f9cf 69bf b950 6cbf 0301 79bf a2c7 70bf
000003f0: ec32 58bf 94d4 52bf 12df 3cbf 4a0f 1ebf

cnn_model.0.bias f4 [10]
-0.010080895 -0.01970006 0.03409874 -0.029373806 0.91377497 -0.009223991 0.9173478 0.893632
-0.019312797 -0.018933726
00000000: 572a 25bc 0562 a1bc 1fab 0b3d 56a1 f0bc
00000010: 28ed 693f 3920 17bc 4ed7 6a3f 11c5 643f
00000020: df35 9ebc e71a 9bbc

cnn_model.2.weight f4 [1, 10, 1, 1]
0.8609715 0.12853228 1.041819 0.90105194 -1.2151096 0.9435122 -1.2448658 -1.2431313
0.9001554 0.74656653
00000000: a168 5c3f f79d 033e 535a 853f 57ab 663f
00000010: b688 9bbf 048a 713f c357 9fbf ed1e 9fbf
00000020: 9670 663f fc1e 3f3f
