annotator/static/models/abhilash_623b1042617f2639f1bdac7e.pth (torch, 169303 bytes, 3 tensors)

cnn_model.0.weight f4 [10, 1, 31, 135]
000000 21 09 ae 3e fb 64 d4 3e 9c 1e c4 3e 5d 11 cc 3e
       0.3399134 0.41483292 0.38304603 0.39856997
000010 f7 9f cb 3e 0a 74 e7 3e d0 92 c8 3e 6b 17 a6 3e
       0.3977048 0.45205718 0.3917451 0.32439741
000020 8c b1 b2 3e f4 f6 d5 3e 33 f5 c4 3e 5e f4 cc 3e
       0.34901083 0.41789973 0.38468322 0.40030187
000030 ac ab c3 3e 77 1b b9 3e 8d c7 cb 3e 81 c9 bf 3e
       0.38216913 0.36153767 0.39800683 0.37458423
000040 30 bf c6 3e b8 59 aa 3e 3c 0e bb 3e 54 c8 ba 3e
       0.3881774 0.33271575 0.36534297 0.36480963
000050 c8 ef d1 3e a4 4c c4 3e 64 8e aa 3e 9c 38 d0 3e
       0.4100325 0.38339722 0.3331176 0.4066819
000060 06 d0 ae 3e c1 52 bd 3e 09 40 9e 3e 0e 71 ad 3e
       0.34143084 0.369772 0.3090823 0.33875316
000070 9a a6 bb 3e a1 dd a5 3e a8 17 16 3f 4d 7d 0d 3f
       0.36650544 0.32395652 0.58629847 0.5526932
000080 f2 39 f2 3e 7d 6e 03 3f 7a 55 13 3f 1f cf 94 3e
       0.47309834 0.51340467 0.575523 0.2906427
000090 56 72 a2 3e 42 f8 92 3e 2d e9 86 3e 41 9d 8f 3e
       0.31727856 0.2870503 0.26349774 0.28049663
0000a0 fa cf 8c 3e f8 53 a1 3e b6 89 79 3e 9d 5d 9a 3e
       0.27502424 0.31509376 0.24368939 0.30149546
0000b0 f8 ad a1 3e af 16 af 3e 82 4d a3 3e cf 4f 97 3e
       0.3157804 0.34196994 0.3189507 0.29553077
0000c0 5b f1 9e 3e 5c ab 90 3e 0d 6b 96 3e 7d 05 8e 3e
       0.31043515 0.28255737 0.29378548 0.27738562
0000d0 93 80 93 3e dd fb 9f 3e 67 2d 86 3e 46 2e 7f 3e
       0.28809032 0.31246844 0.26206514 0.24919996
0000e0 d8 b0 8c 3e c3 28 8e 3e 6e e7 8e 3e c4 3f 8e 3e
       0.2747867 0.27765474 0.27910942 0.27783024
0000f0 17 c9 9f 3e e9 da fb 3e b7 3c fa 3e 81 e1 9b 3e
       0.31208107 0.49190453 0.48874447 0.30445483
000100 1e bd 81 3e b7 d5 d3 3e 0a 1b cb 3e 9c ea b8 3e
       0.25339597 0.4137399 0.39669067 0.36116493
000110 15 71 c3 3e d2 f6 d0 3e cd 12 97 3e e0 d4 91 3e
       0.38172212 0.4081331 0.2950653 0.28482723
000120 a2 7f 95 3e 28 1b 95 3e 4f d1 7f 3e fb 8f a0 3e
       0.2919894 0.2912228 0.24982189 0.31359848
000130 99 46 85 3e c3 54 9c 3e d6 7e 9e 3e 48 b2 a8 3e
       0.26030424 0.30533418 0.30956143 0.32948518
000140 1b da a8 3e c4 26 92 3e 95 67 a5 3e 60 66 88 3e
       0.329789 0.285452 0.3230559 0.26640606
000150 c5 4c 9c 3e e5 43 97 3e f4 f1 8e 3e 24 2d 88 3e
       0.3052732 0.29543987 0.2791897 0.2659694
000160 a0 20 b9 3e a8 bd 98 3e cc 2c a5 3e b9 fb 9d 3e
       0.36157703 0.29832196 0.3226074 0.30856112
000170 66 97 90 3e dd 27 a1 3e 50 57 84 3e ca 65 8b 3e
       0.28240508 0.31475726 0.25847864 0.27226096
000180 ee 90 b5 3e 4b 40 b6 3e 2e a5 b2 3e 79 fe 91 3e
       0.35462135 0.35595927 0.34891647 0.2851446
000190 19 47 8e 3e a0 b0 91 3e 7b 9e 97 3e 5f 4c ae 3e
       0.27788618 0.28455067 0.29613099 0.34042642
0001a0 fb 1e a6 3e 26 d4 9c 3e 51 80 a9 3e 31 28 ae 3e
       0.3244551 0.30630606 0.3310571 0.3401504
0001b0 d1 dc b3 3d 35 3a e3 3d 8e fa 06 3e 7f f8 b9 3e
       0.08782352 0.110950865 0.13181517 0.363224
0001c0 96 4c 9b 3e 5e e8 87 3e 85 3b b8 3e e1 cc 9d 3e
       0.30331868 0.2654447 0.3598291 0.30820373
0001d0 7b cc 91 3e bc 7b 90 3e 32 2c 94 3e 5d 38 8d 3e
       0.2847632 0.28219402 0.28939968 0.27582064
0001e0 b3 6c 98 3e 3d 88 bf 3e a0 7b 97 3e 87 4d b5 3e
       0.2977043 0.3740863 0.29586506 0.3541071
0001f0 0a b7 8f 3e c7 18 9a 3e d3 0d a4 3e 29 64 94 3e
       0.28069335 0.3009703 0.32041797 0.28982666
000200 c6 5b b0 3e 0b 49 a6 3e df 61 81 3e 7a fc ac 3e
       0.34445018 0.32477602 0.25269982 0.33786374
000210 66 35 b6 3e 7f 7d 99 3e 91 b7 c3 3e 0c fc 88 3e
       0.35587615 0.29978558 0.38225988 0.26754797
000220 d9 56 9f 3e 40 07 9c 3e 51 42 be 3e 11 b2 9c 3e
       0.31120947 0.3047428 0.3715997 0.30604604
000230 a4 62 ba 3e 9d 75 a4 3e 31 4f 6c 3e 79 d6 a9 3e
       0.36403382 0.32120982 0.23077084 0.33171442
000240 06 f9 b2 3e e5 af a2 3e 1c 6a 97 3e 20 c7 94 3e
       0.34955615 0.31774822 0.29573143 0.2905817
000250 c1 04 4c 3e 68 c4 91 3e d9 e1 9a 3e 3e f8 46 3e
       0.19923688 0.2847016 0.30250433 0.19430634
000260 5b fc 31 3e e2 a0 b1 3e 07 b3 8a 3e 7e f3 96 3e
       0.17381422 0.34693056 0.27089712 0.29482645
000270 7e f3 bf 3e 30 e7 4a 3e 18 da 60 3e 34 26 b1 3e
       0.37490457 0.19814754 0.21958196 0.3459946
000280 88 58 83 3e c5 90 e1 3e e7 c3 ec 3e 96 60 81 3e
       0.2565348 0.44055763 0.46243212 0.25269002
000290 0a 08 b2 3e b4 2f 0b 3f 74 bc 1a 3f 6d e8 03 3f
       0.34771758 0.54369664 0.60443807 0.5152653
0002a0 cf 90 0d 3f 60 38 e0 3e 12 7e f1 3d 0c df 2b 3e
       0.55299085 0.4379301 0.11791624 0.16784304
0002b0 8a a8 37 3e c4 83 17 3e a8 de d6 3d 43 38 16 3e
       0.17935386 0.14796358 0.10491687 0.146699
0002c0 4f 88 23 3e 13 ca eb 3d a6 40 26 3e ce 25 50 3e
       0.15969966 0.11513152 0.16235599 0.20326921
0002d0 0f 53 29 3e b7 f3 10 3e 35 a0 1b 3e 9c 21 f9 3d
       0.1653559 0.1415547 0.15197833 0.121646136
0002e0 f0 83 0e 3e 56 92 3c 3e 93 2a 8e 3d 66 70 bf 3d
       0.13917518 0.18415198 0.06941714 0.0934761
0002f0 ad 46 2f 3e 3b d5 18 3e ed 74 0e 3e 25 b6 42 3e
       0.17116804 0.14925091 0.13911791 0.19014795
000300 1c 4e d1 3d bb d8 ee 3d 82 b2 3c 3e 01 0f fb 3e
       0.10219976 0.11662432 0.1842747 0.49034885
000310 3a dc 3d bc f4 b3 37 bc 5a 7e ea 3e 8d 54 1c 3e
       -0.011588151 -0.011212338 0.45799524 0.15266629
000320 4c 0f ba 3e f1 6c c0 3e 3d bf a8 3e c5 60 b3 3e
       0.36339796 0.37583116 0.32958403 0.35034767
000330 fc d9 91 3e 62 77 63 3d e0 cc a5 3d 93 b8 03 3e
       0.2848662 0.055533774 0.080957174 0.12863378
000340 6a d5 90 3d 1c 76 95 3d 4a 57 a0 3d 61 95 df 3d
       0.070719555 0.07297918 0.07829149 0.10917164
000350 67 81 3a 3d c9 c1 00 3e fb 2e dc 3d 5d 5f c8 3d
       0.045533564 0.12573923 0.10751148 0.09783814
000360 26 08 97 3d 23 ad a9 3d 6c de 81 3d c8 4b b0 3d
       0.07374601 0.08284976 0.06341252 0.08608204
000370 7a ac c8 3d 4a 6a c2 3c 1e e5 63 3d 2e 92 aa 3d
       0.09798522 0.023732323 0.055638425 0.08328663
000380 f4 9e b2 3d 63 e8 88 3d c1 c5 d1 3d 8a 8b 58 3d
       0.08721724 0.06684949 0.10242797 0.05286745
000390 fc 48 bd 3d 4a 34 d5 3d a9 27 99 3e 61 48 5d 3e
       0.09242436 0.10410364 0.2991307 0.21609642
0003a0 98 bc 69 3e 59 43 a4 3e ff 46 a8 3d d3 de ae 3d
       0.22825849 0.32082632 0.082166664 0.08538594
0003b0 d2 47 54 3d 75 8c 95 3d 72 df 78 3d 77 27 75 3d
       0.051826306 0.07302181 0.06075997 0.05985209
0003c0 7c c9 03 3d c1 ca 82 3d 82 08 dc 3d 13 05 6c 3e
       0.032174572 0.063863285 0.1074381 0.2304881
0003d0 53 16 90 3e 54 51 65 3e 9d 04 75 3d c1 c2 d3 3c
       0.28142032 0.22394305 0.059818853 0.025849702
0003e0 3d 7e 7a 3d 15 06 83 3c 40 f7 91 3a 05 18 67 3c
       0.061155546 0.015994111 0.0011136308 0.014104848
0003f0 df c1 8a 3c b0 a5 ee 3b 99 27 98 3d 71 f6 51 3d
       0.016938148 0.007282935 0.07429428 0.051260415

cnn_model.0.bias f4 [10]
000000 ef f3 ac 3e 38 3b 9b 3e 5b e0 04 3f b4 00 89 3e
       0.33779857 0.30318618 0.5190484 0.2675835
000010 91 1e 1a 3f d2 26 9d 3e 97 d6 9f 3e 3c b2 f3 3e
       0.6020289 0.3069368 0.31218407 0.4759692
000020 90 89 90 bb 22 fb 8e 3e
       -0.00441093 0.27925974

cnn_model.2.weight f4 [1, 10, 1, 1]
000000 94 7d 84 bf d4 e7 9b bf 86 86 4c 3f 7d 26 9b bf
       -1.0350823 -1.2180123 0.79892766 -1.2121121
000010 eb ee 30 3f 11 b6 94 bf 1e 5e 8d bf db b7 68 3f
       0.6911456 -1.1618062 -1.1044347 0.9090554
000020 d6 03 38 3d b2 5b 9d bf
       0.044925533 -1.2293608
