annotator/static/models/abhilash.t_623b1042617f2639f1bdac7e.pth (torch, 72599 bytes, 3 tensors)

cnn_model.0.weight f4 [10, 1, 19, 93]
0.8165768 0.82966363 0.7844342 0.8083465 0.80383116 0.7297502 0.8116709 0.78260064
0.8264155 0.84493285 0.8822445 0.7557785 0.78311026 0.78477085 0.83452207 0.83574885
0.77898884 0.80094033 0.8566852 0.9311781 0.9318786 0.9077022 0.9776439 0.91870165
0.75821036 0.7590912 0.7865852 0.73871076 0.76618904 0.7673249 0.73251367 0.7267211
0.7048229 0.78360295 0.7330845 0.7204313 0.74738544 0.7358307 0.7305278 0.7793299
0.7192583 0.7165312 0.79960346 0.8373644 0.82993984 0.83155864 0.8424611 0.8970675
0.7832796 0.75677705 0.8044734 0.8694924 0.87763995 0.92815816 0.904794 0.8953906
0.9066614 0.9227435 0.92976284 0.91469556 0.9234162 0.8250588 0.8297752 0.79864264
0.74986917 0.72575414 0.76186496 0.7363238 0.7583239 0.7967109 0.7230733 0.74949455
0.7500913 0.7243383 0.74658805 0.7082479 0.7659389 0.74610883 0.7601514 0.73372966
0.73646176 0.72605574 0.74127 0.7039346 0.76200473 0.73303044 0.7105231 0.7126073
0.6755301 0.72226167 0.7023515 0.68910146 0.79584116 0.69728076 0.6875565 0.6594988
0.68680906 0.61661583 0.7275461 0.639595 0.6787546 0.598052 0.7704945 0.6440851
0.7028026 0.5958198 0.74182403 0.53736407 0.6675315 0.7004355 0.704423 0.72266906
0.83680505 0.8476092 0.95165646 0.90310055 0.9308323 0.38340014 0.4872697 0.42302382
0.41360945 0.36159933 0.44956058 0.4167803 0.37484854 0.35347262 0.53513044 0.43580228
0.49487445 0.4462258 0.42902273 0.42726216 0.4907565 0.45941532 0.450393 0.78822446
0.87114644 0.84797937 0.9151358 0.91446614 0.9576016 0.7388885 0.7482962 0.71755165
0.87022525 0.9116241 1.0208929 1.0286969 1.0583628 1.0645022 0.9844078 0.9696266
1.0282354 1.070874 0.9574844 0.75072086 0.57913536 0.5593475 0.61031234 0.63354826
0.65759474 0.66523725 0.7051342 0.6184847 0.6192006 0.6615797 0.57956815 0.618185
0.66787 0.60682726 0.56853276 0.65400565 0.5679908 0.5475099 0.5568744 0.53394353
0.6344911 0.54101837 0.4984815 0.48468888 0.4030271 0.5041946 0.5358347 0.4272957
0.48493925 0.7089952 0.76698536 0.7507379 0.60809886 0.56552345 0.585487 0.654762
0.80073464 0.6074609 0.6957066 0.7755662 0.8044522 0.7925017 0.7620552 0.71608865
0.69340825 0.64453495 0.738751 0.6584427 0.71419245 0.9544585 0.9702326 0.92381316
1.0441774 0.9070527 0.46762064 0.5038354 0.39355248 0.39473987 0.33793005 0.3795175
0.5090854 0.34620124 0.37276164 0.49396592 0.498973 0.5404646 0.57280475 0.526943
0.5275884 0.55350715 0.518051 0.40557447 0.69694424 0.9397036 0.910095 0.90806013
0.9778356 0.9502276 0.82241887 0.8516627 0.76195437 0.9086628 0.963241 1.0750545
1.0261108 1.0559919 1.0579975 1.0167972 1.0611885 1.0508697 1.0534521 1.0110698
0.83386606 0.58462965 0.66555697 0.66458285 0.71815306 0.74830866 0.7313039 0.72279
00000000: 2d0b 513f d664 543f aed0 483f ccef 4e3f
00000010: e1c7 4d3f e9d0 3a3f aac9 4f3f 8458 483f
00000020: f78f 533f 854d 583f c7da 613f b37a 413f
00000030: ea79 483f bee6 483f 3da3 553f a3f3 553f
00000040: d06b 473f 6d0a 4d3f b94f 5b3f b061 6e3f
00000050: 998f 6e3f 2c5f 683f df46 7a3f 0830 6b3f
00000060: 131a 423f cd53 423f a65d 493f 261c 3d3f
00000070: f724 443f 686f 443f 0486 3b3f 650a 3a3f
00000080: 466f 343f 349a 483f 6dab 3b3f 306e 383f
00000090: a754 3f3f 675f 3c3f df03 3b3f 2a82 473f
000000a0: 5021 383f 976e 373f d0b2 4c3f 835d 563f
000000b0: f076 543f 07e1 543f 88ab 573f 37a6 653f
000000c0: 0385 483f 24bc 413f f8f1 4d3f 0e97 5e3f
000000d0: 03ad 603f c69b 6d3f 94a0 673f 5238 653f
000000e0: f61a 683f eb38 6c3f f004 6e3f 7d29 6a3f
000000f0: 0165 6c3f 0e37 533f 266c 543f d873 4c3f
00000100: 6df7 3f3f 06cb 393f 9509 433f b77f 3c3f
00000110: 8421 423f 3ff5 4b3f 551b 393f e0de 3f3f
00000120: fc05 403f 3c6e 393f 6520 3f3f bc4f 353f
00000130: 9214 443f fd00 3f3f 4899 423f b5d5 3b3f
00000140: c288 3c3f cade 393f dfc3 3d3f 0f35 343f
00000150: be12 433f e2a7 3b3f d8e4 353f 6f6d 363f
00000160: 8aef 2c3f 24e6 383f 4fcd 333f f468 303f
00000170: 3fbc 4b3f fe80 323f b403 303f ead4 283f
00000180: b8d2 2f3f 89da 1d3f 7640 3a3f 7fbc 233f
00000190: ddc2 2d3f f019 193f 213f 453f c3e2 243f
000001a0: dfea 333f a587 183f 2ee8 3d3f b190 093f
000001b0: 58e3 2a3f be4f 333f 1155 343f d700 393f
000001c0: db38 563f ebfc 583f c29f 733f 9931 673f
000001d0: 074b 6e3f 064d c43e 6a7b f93e 9496 d83e
000001e0: 9ec4 d33e 8c23 b93e ce2c e63e 3a64 d53e
000001f0: 26ec bf3e 5dfa b43e 4ffe 083f 7a21 df3e
00000200: 2f60 fd3e b577 e43e dea8 db3e 1bc2 da3e
00000210: 7044 fb3e 7c38 eb3e e999 e63e 14c9 493f
00000220: 7403 5f3f 2d15 593f 5746 6a3f 741a 6a3f
00000230: 6125 753f cc27 3d3f 5790 3f3f 77b1 373f
00000240: 15c7 5e3f 3260 693f 9eac 823f 57ac 833f
00000250: 6f78 873f 9c41 883f 2602 7c3f 7339 783f
00000260: 389d 833f 6612 893f b31d 753f 3e2f 403f
00000270: 3742 143f 6631 0f3f 6e3d 1c3f 3830 223f
00000280: 2158 283f fd4c 2a3f ad83 343f 0355 1e3f
00000290: ee83 1e3f 4a5d 293f 945e 143f 5f41 1e3f
000002a0: 87f9 2a3f 0859 1b3f 5d8b 113f ea6c 273f
000002b0: d867 113f 9c29 0c3f 528f 0e3f 86b0 083f
000002c0: 026e 223f 2e80 0a3f f838 ff3e 2429 f83e
000002d0: 9159 ce3e e612 013f 772c 093f 81c6 da3e
000002e0: f549 f83e b680 353f 2759 443f 5c30 403f
000002f0: 5eac 1b3f 25c6 103f 7ae2 153f 7c9e 273f
00000300: f2fc 4c3f 8f82 1b3f d419 323f 828b 463f
00000310: 94f0 4d3f 64e1 4a3f 0d16 433f 9651 373f
00000320: 3483 313f 3e00 253f c91e 3d3f b38f 283f
00000330: 51d5 363f 6457 743f 2a61 783f 057f 6c3f
00000340: 9ba7 853f 9b34 683f f96b ef3e 5bfb 003f
00000350: b67f c93e 581b ca3e 2b05 ad3e 1e50 c23e
00000360: 6c53 023f 4a41 b13e 9dda be3e 1ae9 fc3e
00000370: 6479 ff3e e35b 0a3f 55a3 123f bde5 063f
00000380: 0910 073f a5b2 0d3f fe9e 043f 75a7 cf3e
00000390: f06a 323f 6a90 703f fcfb 683f a176 683f
000003a0: 6f53 7a3f 1e42 733f 0b8a 523f 9106 5a3f
000003b0: 710f 433f 209e 683f f696 763f 639b 893f
000003c0: 9957 833f be2a 873f 766c 873f 6926 823f
000003d0: 06d5 873f e682 863f 85d7 863f bc6a 813f
000003e0: 3f78 553f 4aaa 153f f161 2a3f 1a22 2a3f
000003f0: e1d8 373f 2891 3f3f bb36 3b3f c408 393f

cnn_model.0.bias f4 [10]
1.0813608 -0.4865553 1.1403515 -0.46433255 1.0293328 1.0107048 1.1567017 -0.43382064
-0.48571977 -0.5014827
00000000: 086a 8a3f c71d f9be 0af7 913f ffbc edbe
00000010: 2dc1 833f c65e 813f cd0e 943f bd1d debe
00000020: 43b0 f8be 2c61 00bf

cnn_model.2.weight f4 [1, 10, 1, 1]
-1.1885878 0.8349256 -1.0557185 0.9974792 -1.2966174 -1.2954916 -1.0693573 1.1083137
1.0588628 0.99062485
00000000: a523 98bf afbd 553f c921 87bf cc5a 7f3f
00000010: 8ff7 a5bf abd2 a5bf b3e0 88bf 39dd 8d3f
00000020: d188 873f 9799 7d3f
