annotator/static/models/Abhilash_623b0f55617f2639f1bdac7b.pth (torch, 212503 bytes, 3 tensors)

cnn_model.0.weight f4 [10, 1, 39, 135]
000000 26 8c aa be 44 cb af be 6a 4a a8 be b2 b9 ab be
       -0.3331005 -0.34334767 -0.32869273 -0.33540112
000010 2d b2 a2 be 8d 1b ac be 21 52 a0 be 23 ca b4 be
       -0.31776562 -0.3361477 -0.3131266 -0.35310468
000020 66 0b a4 be 26 77 aa be c7 80 ac be ea b6 a0 be
       -0.32039946 -0.33294028 -0.33692 -0.31389552
000030 05 aa b0 be 85 d4 b1 be 80 e5 9d be 87 34 9e be
       -0.34504715 -0.34732452 -0.30839157 -0.3089945
000040 01 93 ac be 40 06 ac be a3 0e ae be 56 d9 a3 be
       -0.33705905 -0.33598518 -0.33995542 -0.32001752
000050 15 7b b6 be 82 6e af be 75 5b 9c be b1 18 a8 be
       -0.3564078 -0.34263998 -0.30538526 -0.32831338
000060 d4 26 b4 be f3 f5 a8 be 30 46 bd be d7 79 a8 be
       -0.35185874 -0.33000144 -0.3696761 -0.32905456
000070 4e 5e a8 be e4 e4 aa be ee 35 ae be c7 e5 97 be
       -0.3288445 -0.33377755 -0.3402552 -0.29667494
000080 09 7b 9a be 01 7f b4 be 81 a6 b8 be 01 0c a8 be
       -0.30171993 -0.35253146 -0.36064532 -0.32821658
000090 12 8a ac be f7 b9 a6 be 6a 21 a1 be 67 64 dc be
       -0.3369909 -0.32563755 -0.31470805 -0.4304535
0000a0 96 4a f8 be 41 28 e1 be a3 06 eb be b4 9f df be
       -0.48494405 -0.43976024 -0.459035 -0.4367653
0000b0 8c 23 9b be 48 23 a5 be dd f0 a5 be fc fa a1 be
       -0.30300558 -0.3225348 -0.32410327 -0.31636798
0000c0 ac 41 a3 be 6b e2 9e be aa 69 87 be f1 1f 97 be
       -0.3188604 -0.31032118 -0.26447803 -0.29516557
0000d0 d3 68 96 be ff b2 98 be e8 4a 93 be 35 42 8e be
       -0.2937685 -0.29824063 -0.28768086 -0.27784887
0000e0 a8 1f 98 be 8c 6e a2 be a3 b9 99 be 23 cc 8b be
       -0.29711652 -0.31724966 -0.30024442 -0.2730418
0000f0 c3 ff 9d be 88 7e a4 be 9e 33 a0 be 65 c6 93 be
       -0.30859193 -0.32127786 -0.3128938 -0.288623
000100 0e f8 99 be 86 96 9d be 4a 77 81 be 52 69 ab be
       -0.30072063 -0.30778903 -0.25286323 -0.3347879
000110 41 a1 9c be ca b5 91 be ec 99 a3 be b4 a2 9b be
       -0.30591777 -0.28459007 -0.3195337 -0.3039757
000120 1d 0d a7 be 51 8f 8f be 3f 05 8e be 53 d1 97 be
       -0.32627192 -0.2803903 -0.27738377 -0.2965189
000130 d2 a7 9c be 24 f4 99 be e4 ca a3 be 33 46 9c be
       -0.30596787 -0.30069077 -0.3199073 -0.30522308
000140 3f 0d a5 be 36 39 9e be d1 ab 95 be 2d d1 94 be
       -0.32236668 -0.30903023 -0.29232648 -0.29065838
000150 86 2e 91 be 5f 4a 96 be 98 1b 8a be 2e 6d 98 be
       -0.28355807 -0.29353616 -0.26974177 -0.29770797
000160 41 ed 79 be 02 8f 94 be ff a3 a4 be 9b fc 88 be
       -0.24406911 -0.29015356 -0.3215637 -0.26755223
000170 5a cc 92 be b8 46 9a be 30 a2 96 be ff f8 97 be
       -0.28671533 -0.3013208 -0.29420614 -0.29682156
000180 9a a1 91 be d2 26 a8 be 12 0e 9c be cc 55 91 be
       -0.28443605 -0.32842118 -0.30479485 -0.2838577
000190 c7 ee 9c be 0a 70 a0 be 36 bb 9a be e9 ca 79 be
       -0.30650923 -0.3133548 -0.30220956 -0.2439381
0001a0 c1 f4 8d be 3b 24 9d be 50 71 93 be bc db 8a be
       -0.27725795 -0.30691704 -0.28797388 -0.2712077
0001b0 dd fd 90 be f4 18 d4 3e 93 98 de 3e d9 04 df be
       -0.28318682 0.41425288 0.4347578 -0.43558386
0001c0 a9 4d 85 be 5e 3f 96 be 20 e9 a1 be 17 11 99 be
       -0.26035812 -0.2934522 -0.31623173 -0.2989585
0001d0 05 dd 91 be 78 de 9d be ba da 81 be 89 91 90 be
       -0.28488937 -0.30833793 -0.25362188 -0.28236035
0001e0 4f 85 97 be da e5 93 be ee 45 91 be 7d 3d 9d be
       -0.29593894 -0.288863 -0.28373665 -0.30710974
0001f0 23 ee 98 be 9b ad 90 be 2d 78 91 be 91 29 8f be
       -0.29869184 -0.2825745 -0.28412 -0.279614
000200 16 26 98 be 0f 95 91 be 7e c5 81 be a2 86 88 be
       -0.29716557 -0.28434035 -0.25345987 -0.26665217
000210 43 f7 90 be 3e 3a 90 be a0 b7 29 3e 63 f5 58 be
       -0.28313646 -0.28169435 0.16573954 -0.21187358
000220 33 27 70 be 12 65 56 be 4f 5e 52 be 77 a2 4f be
       -0.23452453 -0.20936993 -0.20543788 -0.20276819
000230 99 5c 36 be f7 af 84 be de c9 3e be b8 64 8c be
       -0.1780876 -0.259155 -0.18631694 -0.27420592
000240 a6 66 72 be d2 42 82 be af 41 39 be 72 5e 84 be
       -0.2367197 -0.25441605 -0.18091463 -0.25853306
000250 eb 7a 6d be 12 64 6b be 57 f7 e6 bd 32 20 69 be
       -0.2319142 -0.22987393 -0.11277645 -0.22766188
000260 d0 58 4f be 55 52 67 be 7a a2 90 be 9c be 40 be
       -0.20248723 -0.22590001 -0.2824896 -0.18822712
000270 e4 9b 8f be 87 86 92 be 1b b8 90 be a3 28 43 be
       -0.28048623 -0.2861826 -0.2826546 -0.1905847
000280 f7 97 89 be 6b 8c 7e be 29 79 2f be fc 27 4a be
       -0.26873752 -0.24858253 -0.17136063 -0.19741815
000290 fb 8c 80 be 6d cf 86 be ee 3d 66 be 77 6a 33 be
       -0.2510756 -0.26330128 -0.22484562 -0.17521082
0002a0 17 ce 12 be 72 20 57 be 66 3c 7e be 27 e7 40 be
       -0.1433643 -0.2100847 -0.24827728 -0.18838178
0002b0 33 10 56 be a3 72 53 be 82 58 c1 be f9 35 e2 be
       -0.20904617 -0.20649199 -0.3776284 -0.44181803
0002c0 55 41 d3 be 2a bf d7 be 58 b4 fc be 14 67 09 be
       -0.41260782 -0.42138034 -0.4935634 -0.13418227
0002d0 71 8f 08 be d4 4e ef bd 22 6d 07 be c9 64 27 be
       -0.13335969 -0.11684957 -0.13225225 -0.1634704
0002e0 2a b5 c1 bd e4 9c 10 be c5 a0 c7 bd 8f 5a 42 be
       -0.094583824 -0.14122349 -0.09747461 -0.18979858
0002f0 7e 48 0a be 87 80 34 be 05 c9 16 be e3 43 18 be
       -0.13504216 -0.17627154 -0.1472512 -0.14869647
000300 d9 7a 1b be 08 6a ee bd e2 ca 34 bd 03 f7 0d be
       -0.15183581 -0.116413176 -0.044138797 -0.13863759
000310 5c 21 09 be c0 3a 07 be cd 42 55 be 20 ae b8 bd
       -0.13391632 -0.13206005 -0.20826264 -0.09017587
000320 69 7c ed bd 97 9e 13 be 66 45 0a be ce a0 01 be
       -0.11595995 -0.14415966 -0.13503036 -0.12658998
000330 0e 4c 39 be 63 0d 22 be 52 70 4f bd 88 27 ec bd
       -0.18095419 -0.15825419 -0.050644226 -0.115309775
000340 72 6e 1b be 52 ba 43 be cc 46 28 be f4 a6 fe bd
       -0.1517885 -0.19114044 -0.16433257 -0.124341875
000350 c0 4e a9 bd 02 1f 08 be c7 db 34 be f5 9a ed bd
       -0.082669735 -0.13293079 -0.17661963 -0.11601821
000360 41 a2 11 be 37 05 28 be 48 6b 17 be f6 fd 2a be
       -0.14222051 -0.1640824 -0.14787018 -0.16698441
000370 c5 e6 29 be 89 fc 2a be 6d 23 24 be f4 e7 19 bc
       -0.16591938 -0.16697897 -0.16029139 -0.009393681
000380 3c 4d b6 ba c3 2b 48 bc 94 bf a9 bc 26 d5 bd bb
       -0.0013908516 -0.012217465 -0.020721234 -0.0057932315
000390 e0 29 72 bc df 2f b4 bc c1 ea 7d bb 28 f7 24 bc
       -0.014780492 -0.021995483 -0.003874466 -0.010068692
0003a0 21 8c 72 bc 48 5b 7f ba fc ba bb bc 1e 03 35 bc
       -0.014803917 -0.000974108 -0.02291631 -0.0110481065
0003b0 4f 55 a4 bc 2f f2 a2 bc f1 da 1d bc bc 43 85 bd
       -0.02006021 -0.019890873 -0.009634719 -0.0650706
0003c0 e3 1f bb bc 0d 51 f2 bc 16 21 16 bd 61 aa 61 bd
       -0.022842353 -0.029579664 -0.036652647 -0.055094127
0003d0 58 01 df 3e 11 50 da 3e 16 0d db 3e 77 b2 7b bd
       0.43555713 0.4263921 0.4278342 -0.061449494
0003e0 7f 76 2c bd 87 42 a9 bc 8f cc 02 bc e5 a5 85 bc
       -0.042105194 -0.020661606 -0.007983341 -0.016314456
0003f0 43 0f 36 bc ac 85 a8 bb d9 3c 98 bc 8f 8a 69 bc
       -0.011112037 -0.005142888 -0.018583702 -0.014254226

cnn_model.0.bias f4 [10]
000000 1e 18 bf 3e 8a 85 8f 3e 5d b4 84 3e 6c 3b c8 3e
       0.37323087 0.2803157 0.25918856 0.39107835
000010 05 c2 a9 3e 54 93 95 3e 77 84 87 3e 8d a5 76 3e
       0.33155838 0.29213965 0.2646825 0.2408659
000020 ee 76 9f 3e b2 67 aa 3e
       0.31145424 0.33282238

cnn_model.2.weight f4 [1, 10, 1, 1]
000000 8c 92 22 3f cc 5d 49 bf b3 e0 5b bf 10 37 24 3f
       0.6350486 -0.7865875 -0.8588974 0.6414652
000010 c2 0b 4c 3f 39 6d 42 bf 8b c1 61 bf 0a 19 7b bf
       0.7970544 -0.7594791 -0.8818595 -0.9808508
000020 b9 fe 39 bf d4 73 4b 3f
       -0.726543 0.79473615
