annotator/static/models/Acute_6237748fff6c04cb670d40d7.pth (torch, 101975 bytes, 3 tensors)

cnn_model.0.weight f4 [10, 1, 41, 61]
00000000: adba 503c bede 9c3c 7619 a4ba 95eb 883c
00000010: 5e72 043b 0533 653c cc33 5e3c 67e6 133b
00000020: 16df 4bbc 736e 563c 2444 4e3c c2a1 08bc
00000030: d6a5 d9ba 1436 c73c c8bc edbb 33da e9bb
00000040: 1962 a4bb 7ebc fd39 02cc 40bc 7d61 3abc
00000050: 155d 3abc 40b2 cebb e120 bebb e6b2 823c
00000060: c1fb 323c 438a 9dbb 601d 973c 238e 923c
00000070: 1640 863b a791 21bc 5cf6 e73b 62d5 a83c
00000080: dfe5 293b 9843 24bc 804c 2dbc 3c95 8c3c
00000090: 08ec a83c 967c 1d3c 86e3 62bb a81c b33c
000000a0: 7f81 c93b 1480 a03c cff1 1c3c 51c4 933c
000000b0: ec68 6c3c 877b a53c 6fec 623c 68d3 ae3b
000000c0: 5cd8 193b 879a 1b3c cf0f d63b 332c 8b3c
000000d0: 21a5 e0bb 7861 ac3a 569b ae3c 5bb8 863c
000000e0: a6df 68bc 45a6 22bc 875f 1d3c 77af 8f3b
000000f0: dc95 cbbc f3c8 ad3c 32ce 5e3c e6b7 f43b
00000100: a579 5abc 4c39 2d3c d476 c6bb d896 0a39
00000110: 55ae b53c 6d9b ccbb 3b7e 043c c5e1 57bc
00000120: 2df4 81bb 4eac 5fbc 40d4 293c 93a5 5dbc
00000130: f1f6 70bc f3a1 a93c a11a a23c 9c71 923c
00000140: c40d 61bb e978 f13a a213 d73a 6a8e dabb
00000150: 6981 703c 94c4 b93b b1d3 75bb 5024 8b3c
00000160: e31e f2bb c36b 01bb a1e3 223b e650 0a3c
00000170: ee6a 4c3c e164 993c b883 f8ba 20f8 c83c
00000180: a56a c23c f81d 823c f52f 8e3b 7d17 8eba
00000190: ab0c 69bc b1e9 e03b 388b 663b f925 d0ba
000001a0: 3b5b b2b9 978a 13bc 5134 d53b ce4a 913b
000001b0: d790 83bb 8122 da3b eaf2 1abc 3305 c43c
000001c0: 9595 053c 4f88 8c3c 3cfa 9e3c c585 a83c
000001d0: ab88 953c b6ed 423c f959 a13c 2917 413c
000001e0: 13fd 2d3c 8b45 2a3c 8d78 c33c bd71 f03a
000001f0: 31a6 bc3c 59e9 ac3c 54d0 4dbc d62b 763c
00000200: dabf 39bc c599 cc3c 9f41 4abc 0328 40bc
00000210: 9b61 ce3b 44b2 263c 2049 f53b ed1d 573c
00000220: 807e 5fbb 2a9c cabb 6d57 fa3a b1cd 423c
00000230: f05c 433c 2dda 7f3c ee9a 683c 218d b93c
00000240: f5d4 5e3b 6a43 9b3b f0f9 943c 4f2b b73c
00000250: d1f3 d0ba 9836 173c 1444 9e3c b1b0 833c
00000260: d8db 543c 1519 c5bb e08f 343c 2f3d d3bb
00000270: aff3 be3c 3d06 b93c 2974 ba3c a5a5 903c
00000280: 89a8 cb3c 7b6d 3ebc 7cf9 883b 708c e9bb
00000290: 4b8e a03c 6154 30bc a845 c83c a2c2 a3bb
000002a0: 4b23 163c 60d5 573c 31ea 5fbc 044a a13c
000002b0: cc57 873c f30c 0dbc f2e4 acb8 7404 37bc
000002c0: 2c38 0abc e16d 8abb e7c0 e83b 759f 66bb
000002d0: 87eb 343c 1f60 333c fc58 94bc a292 b23a
000002e0: 1022 903c 8cf3 513b 550a 9c3a ba62 c53c
000002f0: 72db 1fbc 18d4 80bb 7537 fb3b 9f9f 00bc
00000300: 14d0 d83b 10c6 8b3c 05f0 293a 49a2 c1b9
00000310: a6cf 0bbc ae2d b53a 0014 563a 5e9e 3cbc
00000320: 2493 0dbc 5d5b c13c dc30 3ebc 8fac 6d3c
00000330: ddab 2fbc 064b f33b c38e 2c3c 1544 ebba
00000340: 29bd 523b 3d4b dbb9 ab76 f9bb c91b 09ba
00000350: 78d6 60bc 11ff bb3c 313f 893c f9c6 373c
00000360: a67b 853c cf92 543c 4ffe 313c 0700 1ebc
00000370: 03dc a73c 3db1 9e3a 9c2b ba3c 905d 113c
00000380: be6d c33c dce6 943b c9bc 7c3c 3c00 483b
00000390: 7fd6 01bc b889 613b 12d4 223b 7be7 ebbb
000003a0: 824d 823c d1bd 00bb 6d86 8dbb 30f3 bd39
000003b0: 7b68 043c dc85 b03c 3989 1abc e0e1 44bb
000003c0: f1e5 923c 166d a2bb 010d 46bc e1b5 63bc
000003d0: 6634 543c e869 12bc 05da c437 03c6 18ba
000003e0: 99ca 2a3c f8a5 62bc 2cb7 9d3c 0f6b bc3c
000003f0: 3faf b83c c311 843a 613b abbb 072b 41bc
0.0127398195 0.01914918 -0.0012519795 0.016713897 0.002020977 0.013989215 0.013562154 0.002256775
-0.012443325 0.013087857 0.012589488 -0.008339347 -0.0016605209 0.024317779 -0.0072551705 -0.007136607
-0.005016577 0.00048396358 -0.011767389 -0.011375782 -0.011374732 -0.00630787 -0.0058022593 0.015954446
0.010924281 -0.004807742 0.018446624 0.017890042 0.004096995 -0.009861386 0.007078929 0.020609561
0.0025924367 -0.010025881 -0.010577321 0.017161004 0.020620361 0.009612223 -0.0034620478 0.02186425
0.0061494703 0.019592322 0.009579136 0.018037947 0.014429312 0.020200504 0.0138503155 0.00533526
0.0023474908 0.009497291 0.0065326462 0.01698885 -0.0068556224 0.0013151607 0.021314304 0.01644533
-0.014213478 -0.009927337 0.009605295 0.0043849307 -0.024851732 0.021213984 0.0135989655 0.0074682115
-0.013334666 0.010572743 -0.006056646 0.00013216899 0.022177855 -0.006244114 0.008086736 -0.013176386
-0.0039658756 -0.0136519205 0.010365546 -0.0135282455 -0.014707313 0.020707106 0.019788088 0.017876439
-0.003434048 0.0018422875 0.0016409049 -0.006669809 0.014679291 0.005669186 -0.003751021 0.016985089
-0.007388936 -0.001974807 0.0024854916 0.008442139 0.012476666 0.01872486 -0.0018960154 0.024532378
0.023732493 0.01588343 0.004339213 -0.001084074 -0.014224212 0.0068637957 0.0035178196 -0.0015880457
-0.00034018778 -0.00900521 0.0065064807 0.0044339662 -0.004015069 0.006656945 -0.009457329 0.02392826
0.008153339 0.01715484 0.01940643 0.020571599 0.018253645 0.011897495 0.019696223 0.011785307
0.01061942 0.010392557 0.023861194 0.0018344444 0.023028465 0.021107363 -0.012561876 0.0150251
-0.011337245 0.024975667 -0.012344747 -0.01172829 0.0062982566 0.010174338 0.007485524 0.013129693
-0.00341025 -0.006183167 0.0019099541 0.011889861 0.0119240135 0.015615982 0.014197094 0.022650303
0.0034001444 0.004738261 0.018185586 0.022359518 -0.0015941804 0.009229325 0.019319572 0.016075464
0.012991868 -0.006014953 0.011020631 -0.0064465026 0.023309557 0.022585982 0.022760468 0.01765711
0.024860637 -0.011622782 0.0041801315 -0.007127337 0.0195991 -0.010762305 0.024447277 -0.0049975673
0.009163688 0.013173431 -0.013666675 0.019688614 0.016521357 -0.008609044 -8.2442435e-05 -0.011170495
-0.008436244 -0.0042245244 0.007103074 -0.0035190259 0.011042482 0.01094821 -0.018108837 0.0013624022
0.017594367 0.0032036034 0.0011904935 0.024094928 -0.00975691 -0.0039315335 0.007666523 -0.007850557
0.0066166017 0.017062217 0.0006482604 -0.0003693274 -0.008533394 0.0013822818 0.00081664324 -0.011512367
-0.008641038 0.023603136 -0.011608329 0.014506473 -0.010722128 0.007424715 0.010532084 -0.0017949367
0.0032156205 -0.00041826992 -0.0076130233 -0.00052302756 -0.013723008 0.022948774 0.016753765 0.011216872
0.016294312 0.012974455 0.010863855 -0.009643561 0.020490652 0.0012107264 0.022725873 0.008872405
0.02385604 0.004544122 0.015425869 0.0030517718 -0.007924675 0.0034414362 0.0024845642 -0.0071992255
0.0159061 -0.001964439 -0.0043190033 0.00036230078 0.008081551 0.021548204 -0.0094321305 -0.0030041859
0.01793191 -0.0049568517 -0.012088061 -0.013898344 0.012951946 -0.008936383 2.3466544e-05 -0.0005827846
0.01042428 -0.013833515 0.019252382 0.023000268 0.022544501 0.0010076094 -0.0052255844 -0.011790044

cnn_model.0.bias f4 [10]
00000000: 90e8 873b 0624 ee3b 1b89 23ba 3a5c 313c
00000010: 7b7b bbbb ec63 a83c 923b 8c3b cbc5 6d3c
00000020: ae52 053b 37fc ca3b
0.0041475967 0.007267478 -0.0006238387 0.010825211 -0.005721507 0.020555459 0.0042795623 0.01451249
0.002034347 0.006194617

cnn_model.2.weight f4 [1, 10, 1, 1]
00000000: 487d 7ebd 6ce8 94be d991 a23d 2e08 b1bd
00000010: 3426 0cbe 618e fa3c 9686 a73e 7866 023e
00000020: 43f4 f3bd 38fb 79be
-0.062131196 -0.29083574 0.079379745 -0.08644138 -0.13686448 0.03058547 0.32719868 0.12734401
-0.119118236 -0.24412239
