annotator/static/models/Acute_62388f8bc3f2c6a63cc03ec1.pth (torch, 90135 bytes, 3 tensors)

cnn_model.0.weight f4 [10, 1, 35, 63]
000000 7a 9e 3c bf 3d ab 3d bf 18 6a 47 bf b2 3c 43 bf
       -0.73679316 -0.74089414 -0.7789626 -0.7626449
000010 a9 5c 47 bf be 4e 4f bf ce 9e 48 bf 00 b0 49 bf
       -0.77875763 -0.80979526 -0.78367317 -0.7878418
000020 8a 36 3d bf 97 63 43 bf 7d e4 3e bf 6b cf 40 bf
       -0.73911345 -0.7632384 -0.74567395 -0.75316495
000030 78 b5 3e bf 5a b7 4a bf 3b 82 39 bf b0 86 47 bf
       -0.7449565 -0.7918602 -0.7246434 -0.7793989
000040 e9 d8 52 bf a1 62 49 bf 7e 60 45 bf 43 a2 41 bf
       -0.8236223 -0.7866612 -0.7710036 -0.75638217
000050 23 39 44 bf 21 35 46 bf 88 8e 46 bf 41 54 3d bf
       -0.76649684 -0.7742482 -0.77561235 -0.73956686
000060 e1 40 45 bf 65 0c 43 bf 48 09 3f bf 94 44 3c bf
       -0.7705212 -0.7619079 -0.7462354 -0.7354214
000070 25 f4 48 bf 45 00 3c bf f0 13 43 bf 9e 18 49 bf
       -0.78497535 -0.7343791 -0.762023 -0.7855319
000080 e9 86 3e bf f8 38 42 bf cd 1f 48 bf af f2 44 bf
       -0.74424607 -0.7586818 -0.78173524 -0.76932806
000090 29 21 45 bf 14 c2 49 bf 55 92 40 bf 3a 74 40 bf
       -0.77003723 -0.78811765 -0.75223285 -0.7517735
0000a0 de a6 37 bf 84 11 3b bf 4d 5e 3f bf 63 74 41 bf
       -0.71738994 -0.730736 -0.74753267 -0.7556822
0000b0 01 b8 3e bf 7e 67 41 bf 00 56 1c bf 1c 07 82 bf
       -0.7449952 -0.7554854 -0.61068726 -1.015842
0000c0 98 ed 74 bf 2a bf 15 bf a9 12 30 bf 0e 27 41 bf
       -0.9567504 -0.5849482 -0.68778473 -0.7545022
0000d0 47 8c 40 bf d9 1f 44 bf 78 bc 36 bf e3 f0 4e bf
       -0.75214046 -0.76611096 -0.7138133 -0.80836314
0000e0 43 71 44 bf 57 5a 37 bf 5c 84 48 bf e3 0a 40 bf
       -0.76735324 -0.7162222 -0.78326964 -0.7501661
0000f0 5b f2 34 bf 13 b4 45 bf 00 7b 3f bf 78 f8 0f bf
       -0.70682305 -0.77227896 -0.7479706 -0.5623851
000100 dc 53 be be 7a b9 c9 be 57 8e ec be 0a fb e0 be
       -0.37173355 -0.3939932 -0.46202347 -0.43941528
000110 7e b0 04 bf 22 a5 f2 be f3 a5 c8 be 7b b8 f4 be
       -0.51831806 -0.4739161 -0.3918911 -0.47796997
000120 93 e8 dc be 45 32 f4 be d7 ae cc be 11 39 d8 be
       -0.4314619 -0.47694603 -0.39977142 -0.42231038
000130 a1 84 de be 40 34 dd be 39 7e 00 bf fb 2f 05 bf
       -0.43460563 -0.43203926 -0.501926 -0.5202634
000140 22 34 ee be ca 1e e7 be 31 3c 11 bf 26 30 bd be
       -0.4652415 -0.45140678 -0.5673247 -0.36950797
000150 bf ee c2 be 19 43 ff be 80 30 f1 be 4b 07 df be
       -0.38072774 -0.4985588 -0.47107315 -0.43560252
000160 a3 03 f7 be 10 98 c5 be ab 6f fb be 38 cf dd be
       -0.48244962 -0.38592577 -0.49108633 -0.43322158
000170 96 e3 c9 be 35 1d c2 be 82 62 d0 be 88 b8 ce be
       -0.39431447 -0.37912908 -0.40700155 -0.4037516
000180 40 c1 d5 be 2d 23 d6 be 65 98 cd be 15 13 e8 be
       -0.41749 -0.41823712 -0.4015533 -0.45327058
000190 1b d7 d1 be a1 73 f5 be 1a 01 b4 be c9 56 1b be
       -0.40984425 -0.4793978 -0.3515709 -0.15169825
0001a0 2a 37 3b be f6 40 21 be a7 48 4f be d6 21 50 be
       -0.18282762 -0.15747437 -0.20242558 -0.20325407
0001b0 35 26 5d be 52 a5 40 bf a7 ff 0e 3f 9b 86 15 3f
       -0.21596606 -0.7525226 0.55858845 0.58408517
0001c0 82 2e 6e bf 2f 58 ed be 7a 22 52 be e9 3a 3f be
       -0.93039715 -0.4635634 -0.20520964 -0.18674816
0001d0 b9 8d 39 be 37 17 63 be bd 0a 5f be bb b2 41 be
       -0.18120469 -0.22176825 -0.2178144 -0.18915837
0001e0 22 1c 26 be c1 e3 44 be 59 c2 23 be 62 e4 5b be
       -0.1622167 -0.19227506 -0.15992106 -0.2147384
0001f0 49 4a 75 be 93 30 04 bf fb 73 f8 be 4b 43 c1 be
       -0.23954119 -0.5163662 -0.48525986 -0.37746653
000200 a1 36 d1 be 23 21 f7 be b8 7d c3 be 73 2b 0d bf
       -0.4086199 -0.4826747 -0.38181853 -0.55144423
000210 bb 63 0d bf f5 ca d4 be 2e 41 ec be 12 2d d3 be
       -0.552303 -0.41561094 -0.46143478 -0.41245323
000220 9a f7 ec be 05 5a c6 be ba b8 ce be 73 d0 e1 be
       -0.46282655 -0.38740554 -0.4037531 -0.44104347
000230 0b 05 e0 be 3a e5 9a be 67 64 06 bf 77 50 f6 be
       -0.43753847 -0.3025301 -0.5249695 -0.48108265
000240 d8 8f e0 be 85 16 fa be 3e a1 09 bf 0e e9 e8 be
       -0.43859744 -0.48845306 -0.5376166 -0.45490307
000250 9b 46 18 bf 23 30 01 bf 65 be c7 be 11 e1 14 bf
       -0.59482735 -0.50464076 -0.39012447 -0.58155924
000260 bd a4 f2 be c8 d2 dd be 53 d1 00 bf fa 0c f0 be
       -0.4739131 -0.43324876 -0.50319403 -0.468849
000270 09 28 e5 be d4 07 e6 be c3 40 0c bf 1e c0 dc be
       -0.44757107 -0.44927847 -0.5478632 -0.43115324
000280 3f c4 d1 be f7 40 f2 be 4c 39 e8 be 5e e5 fe be
       -0.40970036 -0.4731519 -0.45356214 -0.49784368
000290 01 54 d7 be e0 78 e4 be e3 7b e0 bd f6 5f a0 bd
       -0.42056277 -0.4462347 -0.109611295 -0.07830803
0002a0 5e 5c 66 bd 06 d2 87 bd 32 a0 85 bd 07 13 41 be
       -0.056240432 -0.06631856 -0.065246955 -0.18854915
0002b0 2e 56 2c bf 23 84 76 3e 13 2d 0d 3e 63 36 13 3f
       -0.67319 0.24073844 0.13786726 0.5750486
0002c0 0e e2 2a bf ae ed c1 bd 2f 5f b4 bd c7 fa 51 bd
       -0.6675118 -0.09469162 -0.08807217 -0.05126455
0002d0 65 17 26 bd 63 5c 34 bd 7f cb 4a bd a8 2d 12 bd
       -0.040549655 -0.04403342 -0.049510475 -0.035688072
0002e0 de b0 82 bd 07 d0 a6 bd 44 da 81 bd 26 16 19 be
       -0.06381391 -0.08145147 -0.06340459 -0.14949855
0002f0 4f fa 0e bf 59 1c 05 bf 5b 7a f8 be 37 a0 cb be
       -0.5585069 -0.5199638 -0.4853085 -0.39770672
000300 62 41 f3 be 2a 3f ec be 0b 4a 11 bf 5c 7e c7 be
       -0.4751082 -0.4614194 -0.56753606 -0.38963592
000310 c4 d7 c4 be 35 69 ee be 6e 46 f7 be 25 7e e4 be
       -0.38445866 -0.46564642 -0.4829592 -0.4462749
000320 c2 dd de be 38 fa b5 be 64 64 ab be b6 9e 01 bf
       -0.43528563 -0.35542464 -0.3347503 -0.506328
000330 a9 25 0b bf df 03 fd be 26 2a 03 bf 67 10 cc be
       -0.5435434 -0.49417016 -0.5123619 -0.39856264
000340 04 93 f9 be 68 89 f2 be 71 83 01 bf da ab 08 bf
       -0.48744977 -0.47370458 -0.5059119 -0.53387225
000350 a4 af fe be ac 18 17 bf 80 18 cd be 9d 42 0d bf
       -0.49743378 -0.5902202 -0.40057755 -0.5517977
000360 a2 8d 0d bf 31 31 e6 be ec 61 ef be 87 50 08 bf
       -0.5529424 -0.44959405 -0.46754396 -0.53247875
000370 91 76 ff be 8f 0f df be 81 4b ff be 1b 7c e9 be
       -0.49895146 -0.43566558 -0.49862292 -0.45602497
000380 c2 7a f0 be 01 d2 f9 be 4c 52 16 bf 6c f7 d0 be
       -0.46968657 -0.48793033 -0.58719325 -0.40813768
000390 52 76 02 bf 1e d4 bf bd ca 62 a3 bd 2a 9f 94 bd
       -0.5096179 -0.0936663 -0.07977827 -0.07256921
0003a0 54 70 75 bd 97 78 8f bd 0f 0c b2 be 7a dd 64 bf
       -0.059921578 -0.070054226 -0.34774825 -0.89400446
0003b0 3a 8c 21 3e 4b 98 56 3d b8 6e 14 3f d8 cb 29 bf
       0.15776148 0.05239133 0.57981443 -0.66326666
0003c0 4a 66 cc bd b6 23 80 bd 00 c7 05 bd 84 b5 30 bd
       -0.099804476 -0.06256811 -0.032660484 -0.043141857
0003d0 95 d6 9c bd aa 96 af bd 52 df ac bd 48 66 86 bd
       -0.07658116 -0.08573659 -0.084410325 -0.06562477
0003e0 23 dd 84 bd 17 b5 84 bd 41 83 c5 bd eb 8e 09 bf
       -0.06487491 -0.06479853 -0.09644175 -0.537337
0003f0 87 80 03 bf 0b 1d bf be 7e 8a cc be bd 2e ca be
       -0.5136799 -0.37326846 -0.3994941 -0.39488783

cnn_model.0.bias f4 [10]
000000 ec 92 8f bc 47 36 3a be 80 88 a6 bb 63 fa ac bc
       -0.017526112 -0.18184768 -0.00508219 -0.021115487
000010 ba 14 80 bc df 5c c7 bd 9d 9a e6 3e b3 15 11 bd
       -0.015634883 -0.09734511 0.45039836 -0.035421085
000020 83 0b 87 bc 2d a2 55 bc
       -0.016484981 -0.013039154

cnn_model.2.weight f4 [1, 10, 1, 1]
000000 2e c9 8d 3f 53 4a 55 3f 01 7d 34 3e cc dc 89 3f
       1.107702 0.83316535 0.1762581 1.0770507
000010 4f b6 8e 3c 7b 08 6d 3f cc 84 86 bf de 01 89 3f
       0.017420916 0.92591065 -1.0509276 1.0703695
000020 86 a0 0f 3e 85 10 e2 3d
       0.14026079 0.11038307
