annotator/static/models/Depressant_62388f8bc3f2c6a63cc03ec1.pth (torch, 211671 bytes, 3 tensors)

cnn_model.0.weight f4 [10, 1, 49, 107]
000000 db e4 13 bf ad 90 08 bf fa 13 0c bf 28 75 0e bf
       -0.5777108 -0.5334576 -0.5471798 -0.55647516
000010 e6 37 0e bf ee 23 0a bf 01 64 14 bf 5f a3 0d bf
       -0.55554044 -0.53961074 -0.57965094 -0.5532741
000020 e2 20 0b bf 16 7b 17 bf 00 92 0d bf 80 c2 0c bf
       -0.5434705 -0.5917219 -0.55300903 -0.54984283
000030 73 56 0e bf 94 ff 09 bf bc 29 12 bf 31 b6 11 bf
       -0.5560066 -0.53905606 -0.5709493 -0.5691863
000040 77 63 0f bf 28 f1 0c bf 27 95 09 bf e9 8f 0b bf
       -0.56011146 -0.55055475 -0.53743213 -0.54516464
000050 7f 4c 13 bf 34 85 09 bf 3b cd 10 bf f2 01 14 bf
       -0.575386 -0.53718877 -0.56563157 -0.5781547
000060 41 d9 0d bf 78 93 13 bf 80 db 0a bf 35 1f 0b bf
       -0.5540963 -0.57646894 -0.5424118 -0.54344493
000070 1a b5 13 bf 99 9b 0f bf 5d 41 0f bf 79 6e 0c bf
       -0.57698214 -0.560968 -0.5595911 -0.5485607
000080 02 2b 0b bf 21 ac 0c bf cd 4a 0d bf 05 60 0c bf
       -0.543625 -0.5495015 -0.5519226 -0.54834014
000090 dc cb 07 bf 47 93 0c bf 1d e4 0e bf 63 98 10 bf
       -0.5304544 -0.5491223 -0.55816823 -0.56482524
0000a0 f2 15 07 bf 13 b1 10 bf 75 6f 10 bf 25 e7 16 bf
       -0.5276786 -0.56520194 -0.5642007 -0.5894645
0000b0 38 68 10 bf 08 bb 10 bf 3b 9b 0f bf 73 e1 10 bf
       -0.56409025 -0.5653539 -0.5609624 -0.5659401
0000c0 69 e5 0d bf a4 19 1f bf c3 58 22 bf a4 07 1d bf
       -0.5542818 -0.621485 -0.6341669 -0.61339784
0000d0 a3 68 1f bf a6 ee 21 bf bf f2 0d bf 84 18 06 bf
       -0.6226904 -0.63254774 -0.55448526 -0.5238116
0000e0 02 d2 0d bf 11 17 0e bf c4 9b 09 bf aa 94 09 bf
       -0.5539857 -0.55503947 -0.53753304 -0.5374247
0000f0 09 b6 09 bf 2d 1e 0f bf b3 98 0f bf 09 ef 0e bf
       -0.5379339 -0.5590542 -0.56092376 -0.5583349
000100 61 4b 10 bf 13 c0 04 bf d4 52 0b bf 5a 22 11 bf
       -0.5636502 -0.5185558 -0.5442326 -0.5669304
000110 4e d3 0e bf cb 31 0d bf ab 96 09 bf 26 71 0c bf
       -0.55791175 -0.55154103 -0.53745526 -0.5486015
000120 d5 d1 0b bf a4 73 0c bf 82 46 0d bf d5 0e 0a bf
       -0.54617053 -0.54863954 -0.5518571 -0.5392888
000130 fa 79 0a bf 6e 4b 12 bf 5f 60 0a bf 92 cb 0c bf
       -0.5409237 -0.57146347 -0.540533 -0.54998124
000140 dc 7c 06 bf bd 74 0a bf 35 c0 0e bf 88 25 11 bf
       -0.5253427 -0.5408438 -0.55762035 -0.56697893
000150 25 35 0f bf dc b1 0c bf 52 03 10 bf ca bf 0f bf
       -0.5594047 -0.5495889 -0.56255066 -0.5615202
000160 d0 df 09 bf b4 47 0a bf 83 e9 09 bf 1c 25 0c bf
       -0.53857136 -0.5401566 -0.53871936 -0.54744124
000170 8c 70 0b bf c8 ee 0d bf 52 c9 0b bf 04 c5 0d bf
       -0.5446861 -0.55442476 -0.54604065 -0.55378747
000180 9f 81 0e bf ec 0d 0d bf e6 59 0d bf b6 e5 07 bf
       -0.55666536 -0.5509937 -0.552153 -0.53084886
000190 77 ea 11 bf 0c 79 0a bf b4 74 09 bf f9 5a 06 bf
       -0.5699839 -0.5409095 -0.536937 -0.52482563
0001a0 a0 e1 0c bf a5 72 17 bf 1a 95 fa ba 37 71 03 bf
       -0.55031776 -0.5915931 -0.0019117922 -0.5134463
0001b0 b7 fe 8e be a9 d1 a1 be aa 24 a4 be 94 1b 7d be
       -0.27928707 -0.3160527 -0.32059222 -0.24717551
0001c0 c9 6a 9d be 3f 80 8e be 03 b6 9d be db 83 99 be
       -0.30745533 -0.2783222 -0.30802926 -0.2998341
0001d0 dd 01 a3 be 82 7a ac be 41 d6 9d be df 85 96 be
       -0.3183736 -0.33687216 -0.30827525 -0.2939901
0001e0 8f 6e af be 09 3d a1 be 70 54 96 be 54 f6 a2 be
       -0.34264037 -0.3149188 -0.29361296 -0.31828558
0001f0 87 62 a5 be 90 09 ac be 1e 6e a9 be 34 a5 89 be
       -0.32301733 -0.33601046 -0.33091825 -0.26883852
000200 b9 3f 93 be 93 6b a5 be b1 11 97 be e9 99 aa be
       -0.28759554 -0.32308635 -0.29505685 -0.3332055
000210 2b e2 98 be a8 28 99 be 11 64 a2 be 67 24 ac be
       -0.29860052 -0.2991383 -0.3171697 -0.33621523
000220 51 8b c9 be 9e d1 9c be f4 e8 89 be 7c f3 a6 be
       -0.39364102 -0.30628675 -0.26935542 -0.3260764
000230 e5 ee 99 be 3f e8 a5 be cb 29 97 be d2 1b 9b be
       -0.30065075 -0.32403752 -0.29524073 -0.30294663
000240 9e 49 a4 be 2a b4 aa be 90 c2 a5 be 74 b3 86 be
       -0.32087415 -0.3334058 -0.32375002 -0.26308787
000250 31 6e 8c be 42 5c 8f be fe 22 94 be 3b 02 ad be
       -0.2742782 -0.28000075 -0.28932947 -0.33790764
000260 84 f3 af be a7 5d 99 be a4 51 94 be 05 84 91 be
       -0.34365475 -0.29954264 -0.28968537 -0.28421035
000270 db 0d 1f bf ed 02 15 bf bb 7e 18 bf 35 a1 0a bf
       -0.62130517 -0.5820759 -0.59568375 -0.5415223
000280 b9 a1 17 bf ad 24 55 be cf 89 4c be a4 e5 79 be
       -0.59231144 -0.20814772 -0.19974445 -0.24404007
000290 2d 6e 4d be 1d ce 46 be 5e ec 40 be c8 09 5d be
       -0.2006156 -0.19414563 -0.18840167 -0.21585763
0002a0 11 37 38 be 22 9c 4f be ee 70 55 be 7c 06 3d be
       -0.17989756 -0.20274404 -0.2084386 -0.18459505
0002b0 d6 f1 48 be b0 0a 58 be e8 be 58 be 4e 67 72 be
       -0.19623503 -0.21097827 -0.21166575 -0.2367222
0002c0 7c 10 65 be b6 ea 60 be b7 76 47 be ab 88 4f be
       -0.2236957 -0.21964535 -0.1947888 -0.20266978
0002d0 5e b0 40 be 07 f9 49 be b2 86 53 be e4 9b 4b be
       -0.18817279 -0.19723903 -0.20656851 -0.19883686
0002e0 62 d5 4f be 01 17 3e be b0 1c 45 be f6 c1 41 be
       -0.20296243 -0.18563463 -0.19249225 -0.18921646
0002f0 3d 6f 4f be b4 c8 3d be 2f f3 3e be 3f ae 71 be
       -0.20257278 -0.18533593 -0.18647455 -0.23601626
000300 a1 86 6c be 73 da 42 be d5 c8 68 be 16 3c 40 be
       -0.23098232 -0.19028644 -0.22732861 -0.18772921
000310 fd b9 44 be b3 42 55 be db 91 50 be 3e ee 4a be
       -0.19211574 -0.20826225 -0.2036814 -0.19817445
000320 f3 7c 81 be d5 9b 53 be 5d 9a 65 be 7c ba 4d be
       -0.2529064 -0.20664914 -0.22422166 -0.2009067
000330 4c e5 3a be 9a c0 56 be 5e 8f 4e be 10 77 5a be
       -0.18251532 -0.20971909 -0.20171878 -0.21334481
000340 2a 5d 57 be 73 c6 66 be ac a8 59 be b3 7b 71 be
       -0.21031633 -0.2253664 -0.2125575 -0.23582344
000350 c0 97 02 bf 65 fb 31 3e 22 79 02 bf 7a 54 89 be
       -0.510128 0.17381056 -0.50966084 -0.26822263
000360 80 7e a2 be cf 50 90 be 4c 2a 97 be 46 96 a4 be
       -0.31737137 -0.28186652 -0.29524457 -0.321459
000370 de 59 9c be 8c ef 94 be 92 da 9b be 2c a1 b0 be
       -0.30537313 -0.2908901 -0.30440193 -0.34497964
000380 7d 7a a2 be fd e3 98 be 73 6f 9b be 10 4c 88 be
       -0.31734076 -0.2986144 -0.30358467 -0.2662053
000390 36 87 a8 be 98 6f 6d be 0f 63 98 be 6d 1e 98 be
       -0.32915658 -0.23187101 -0.29763076 -0.29710713
0003a0 c6 34 9e be fc db 91 be 8e 3a ad be 54 16 9a be
       -0.30899638 -0.28488147 -0.33833736 -0.3009516
0003b0 86 28 a9 be 27 99 ad be 23 f3 9b be 21 b2 9f be
       -0.3303873 -0.33905908 -0.30458936 -0.3119059
0003c0 fb 4a 9b be 37 af aa be 76 50 a8 be 29 93 95 be
       -0.30330643 -0.33336803 -0.32873887 -0.29213837
0003d0 1c 20 a5 be ac 62 a5 be 65 05 88 be d8 67 a1 be
       -0.3225106 -0.32301843 -0.26566616 -0.3152454
0003e0 6b 2e 97 be c1 17 a4 be 01 f1 9d be fa a2 ac be
       -0.29527602 -0.32049373 -0.30847934 -0.3371809
0003f0 d6 64 8a be 7c c8 bb be 96 e5 9c be 99 3c b1 be
       -0.27030057 -0.36676395 -0.3064391 -0.34616545

cnn_model.0.bias f4 [10]
000000 4d e3 c8 be a6 40 a0 3e 4a 10 c3 be 9c 1a c8 3e
       -0.39235917 0.31299323 -0.38098365 0.390828
000010 4d d7 29 be 48 07 19 be 62 ea 2f bb 72 43 02 be
       -0.16586037 -0.14944184 -0.0026842584 -0.12721041
000020 ae ba 2a be 80 02 13 be
       -0.16672775 -0.14356422

cnn_model.2.weight f4 [1, 10, 1, 1]
000000 11 c3 0e 3f 1e 3c 6a bf d4 46 12 3f 28 6f 37 bf
       0.557664 -0.9149798 0.57139325 -0.71653986
000010 1a 29 30 3f 93 83 3c 3f 86 e8 f4 3d f2 ad 42 3f
       0.68812716 0.73638266 0.11958413 0.7604667
000020 63 cb 2e 3f 9f e8 36 3f
       0.68279094 0.714487
