annotator/static/models/es_628e1b785ac9c94839689134.pth (torch, 74335 bytes, 3 tensors)

cnn_model.0.weight f4 [10, 1, 49, 37]
00000000: 6114 c8bc d974 9ebc 81e7 1cbc 347e 80bc
00000010: d859 8c3c 2be7 8dbc cc8c 893b b09b 063c
00000020: da9e abbc 4ba8 3f3c d296 a7bc 3ddd 183b
00000030: eb6b c1bb 7e20 1b3c f786 8b3c 22e1 5b3c
00000040: 7f7d 433c 3115 18bb a2c5 0f3c ded5 ddbb
00000050: 7f1d 57bb 6452 96bc a044 4d3b bf81 5b3b
00000060: 986f 9abc a207 70bc ac61 d4bb 5e10 7c3c
00000070: 802c 523c ee43 ccba cf36 2f3b 17e6 a3bc
00000080: 4791 003c 0cc9 353c 41a4 1e3b de09 d1bc
00000090: d86a 423b 94e4 23bc 3597 d53a 0696 23bc
000000a0: 49e9 bfbb 0bfe e9bc b5ee 4bbc 6b48 02bc
000000b0: f23a 733c 7a73 c0bb 4532 c5bc 4f33 e4bc
000000c0: 3886 58bc fb1a 8f3a cab7 883c 2f29 0f3c
000000d0: daa1 33bb de15 5ebb d3de a5bc 604d 92bc
000000e0: 3bc0 bdbc e6cf b3bc fc64 52ba f413 8ebb
000000f0: a4e9 0abc 75db b4bc b4b1 dbbc cfe3 b03a
00000100: 53eb 833c 221e 21bc 1307 663c 36d1 7c3c
00000110: a42e 573c 13b8 a5bc c709 aabb 93e3 dcbc
00000120: 41c0 7b3c d4b9 dbbc c711 5c3c 4a59 bfbc
00000130: fecc b8bc 070d b9bb 71ba e5bb 8005 79bc
00000140: 7da8 b33a 0678 f13b 0bba 71bc 90fa c1bc
00000150: ef3c 0d3c 5a7b 3f3b 99e2 aa3b 55f2 cdba
00000160: 2beb 70bb 0ee9 f1bc 150e 6cbc 4905 d6bc
00000170: 304f 993b 17dc cabb 36a4 633c 22ab 7f3c
00000180: 0906 f0ba ead6 4bbc 8006 03bb f3df 12bc
00000190: cf97 c4bc a1f6 833c dcae 6f3a 44c2 5ebc
000001a0: 564e d4bb 96d6 94bc 8059 39bc 0d73 60bc
000001b0: 20a4 c9bc 55c7 f43b a5a5 2cbc 6c8b b9bc
000001c0: f053 cebc b030 853c 3ea5 d83b eeb3 813c
000001d0: a124 c83a ad0c 3f3c 0982 2dbc 908a 1cbb
000001e0: 04d1 da3b 9a84 f8ba e6b5 f53b bb59 993b
000001f0: a449 abbc 9069 a9bc 756b 7c3c efc9 c1bc
00000200: 3922 6cbc d0a6 423c 2d39 603c e8dc a5bb
00000210: 7ddd e6bc 3178 d4bc f591 6f3c a654 bdbb
00000220: e23d c6bb c3cf e0ba fd59 393c 2cdd 243c
00000230: b823 cbbc c5ff 2f3c e21a ebbc 17c6 a33b
00000240: 6daa 77bc 74f9 c53b 2eb3 94bc e875 a4ba
00000250: f95b 80bc 8030 00bc 48d9 623b 0582 c83b
00000260: 9199 c2bb b28a 503c 7c8f bc3a c905 123a
00000270: d115 f83a 9360 75bc 6ccf 253c 166f 81bb
00000280: c612 1d3c 8af6 54bc fb14 21bb 2ac4 733c
00000290: f756 e9bc 9501 2fbc d676 be39 0c66 77bc
000002a0: de71 84bc d4d2 9fbc 8b74 e7bc 32c7 11ba
000002b0: e03c edbc c7bd 8bbc 1d7d 1bba f6da 813a
000002c0: 9949 01bc a2d0 e6bc 2434 5bb9 c2f2 edbc
000002d0: 81c6 cebb ac15 24bc 96ed 3a3a dde7 153c
000002e0: 8a4e 70bb f9a0 9cbb 82e3 943b 4c59 b43b
000002f0: aae2 5e3c 7fb0 8cbc 4758 413c 0d73 b7bc
00000300: 3861 bcbc 4fcf 1bba 0709 f63b 8c7b a0bb
00000310: 62c5 863c 7a0e 3abc 9a92 2c3c 147e 853c
00000320: 3b1d 9a3b e349 23b9 193a 063c 3bf7 59bc
00000330: 5968 50bc bc7c ee3b 4617 bdbc 9bf7 28bc
00000340: 310d 0ebc 3c14 313c 7096 8a3c 2015 683c
00000350: 5720 55bb 8602 253c 68a5 8bbc 7c49 b6bc
00000360: 9885 123c 8130 dabc 9e43 413c 7a12 29ba
00000370: ae4b 983a 3e31 f8bb c2af b4bc dbc2 bfbc
00000380: 4b22 e8ba 90da ecbc 0433 3cbc e87f c2bc
00000390: bd07 d1bc 1e5d ccbc bbcb 07bc 2fd1 a7bc
000003a0: f239 e6bc aa28 163c d56a 98bc ce9e acbc
000003b0: 12b2 40bc 2a0f 34bc 93ef ce3b 2e96 a6bc
000003c0: 364f acbc 2dec f43b f6f2 703c 6d23 843b
000003d0: ef01 76bb 346b 8d3c 39ef 7cbc 7dfe d1bc
000003e0: 6b22 14bc 0e21 54bc 4c5d 943b e85b 883c
000003f0: e5c5 51bc 357d 56bc b837 22bb 4d26 a2bc
-0.02442378 -0.019342827 -0.009576679 -0.015685178 0.017132685 -0.017322144 0.0041976925 0.00821583
-0.02094977 0.011697839 -0.020457659 0.0023325228 -0.0059027574 0.009468196 0.01703213 0.013420375
0.011931776 -0.002320599 0.008775147 -0.0067698797 -0.0032823978 -0.018349834 0.0031321421 0.0033494083
-0.01885204 -0.014650257 -0.00648137 0.015384762 0.012827992 -0.001558421 0.002673555 -0.020007176
0.007847137 0.011095297 0.002420679 -0.0255174 0.0029665735 -0.010003228 0.0016295674 -0.009984499
-0.005856667 -0.02856352 -0.012447049 -0.007951836 0.014845597 -0.005873141 -0.024071822 -0.027856497
-0.013215594 0.0010918075 0.0166892 0.008737846 -0.0027409703 -0.0033887546 -0.020247852 -0.01785916
-0.023162952 -0.02194972 -0.0008025912 -0.0043358747 -0.008478556 -0.022077302 -0.026818134 0.0013495627
0.016103422 -0.009833844 0.014039773 0.015430739 0.013133679 -0.020229375 -0.005189154 -0.026963985
0.015365661 -0.026822008 0.013431973 -0.023358006 -0.022558685 -0.005647305 -0.007010751 -0.015199065
0.001370683 0.0073690442 -0.014753829 -0.023679048 0.008620485 0.002921781 0.005215001 -0.0015712479
-0.0036761265 -0.029530074 -0.014407654 -0.026125567 0.0046786293 -0.0061907875 0.013894131 0.015604766
-0.0018312345 -0.012441376 -0.0019992888 -0.0089645265 -0.02399817 0.016108813 0.00091431825 -0.013596121
-0.006479065 -0.018168729 -0.011312842 -0.013699305 -0.024614394 0.0074700513 -0.01053754 -0.02264949
-0.025186509 0.016258568 0.0066114953 0.015832867 0.0015269705 0.011660737 -0.010590085 -0.00238863
0.0066777486 -0.0018960417 0.0074984906 0.004679886 -0.020909138 -0.020680219 0.015406479 -0.02365586
-0.014412456 0.0118805915 0.013685507 -0.0050617345 -0.028181786 -0.025936218 0.014622201 -0.005777913
-0.0060498575 -0.0017151762 0.011312959 0.010062497 -0.024797305 0.010742133 -0.028699342 0.0049979794
-0.015116316 0.0060417 -0.018151846 -0.0012547346 -0.015668856 -0.007824063 0.0034614373 0.006119015
-0.0059387167 0.01272838 0.0014386023 0.000557032 0.00189274 -0.014976638 0.010120254 -0.00395001
0.0095869955 -0.012998233 -0.0024579156 0.014878312 -0.02848385 -0.0106815295 0.00036328164 -0.015100013
-0.016167577 -0.01950971 -0.028253814 -0.00055609934 -0.028959692 -0.017058266 -0.0005931424 0.0009907174
-0.007891082 -0.028175656 -0.00020904891 -0.02904642 -0.0063102846 -0.010014933 0.000713074 0.009149519
-0.0036667907 -0.0047799316 0.0045437226 0.005503809 0.013603846 -0.017174004 0.011800832 -0.022393728
-0.022995576 -0.0005943672 0.0075084004 -0.0048975404 0.016451541 -0.011355991 0.010532999 0.01629547
0.0047031916 -0.00015572416 0.0081925625 -0.013303573 -0.012720191 0.007278053 -0.023082387 -0.01031294
-0.008670137 0.010808047 0.016917437 0.014165193 -0.0032520497 0.010071402 -0.017046645 -0.022251837
0.008942984 -0.026634457 0.011795906 -0.00064495916 0.0011619234 -0.0075742295 -0.022056464 -0.023408344
-0.0017710415 -0.028912812 -0.011486772 -0.023742631 -0.025516385 -0.024946745 -0.008288319 -0.020485489
-0.028103802 0.0091649685 -0.018605629 -0.021071818 -0.011761205 -0.0109899435 0.0063151806 -0.020335283
-0.021033864 0.0074744434 0.014706364 0.0040325434 -0.0037537774 0.017263032 -0.0154378945 -0.025634045
-0.009041409 -0.012947334 0.0045277234 0.016645387 -0.012803529 -0.013091375 -0.002475245 -0.019793654

cnn_model.0.bias f4 [10]
00000000: 275a 46bc 95b0 00bd c505 9b3d 3de6 ccbc
00000010: 7f35 543d e90b af3b 7edc 9e3d 9498 bf3d
00000020: 90ff 663f bfc5 bd3d
-0.012106455 -0.0314184 0.0756946 -0.02501213 0.05180883 0.005341996 0.07756899 0.09355274
0.9023371 0.09266233

cnn_model.2.weight f4 [1, 10, 1, 1]
00000000: 67a3 443e e512 0c3d 4288 b6bf 6b1a 573e
00000010: 621d f6bc 101c cb3b 6a2d b5bf 5bbd c2bf
00000020: 49d0 b03f f4d7 b5bf
0.19202958 0.034197707 -1.4260333 0.21006171 -0.030043308 0.0061984137 -1.4154484 -1.5214037
1.3813564 -1.4206529
