annotator/static/models/es_628e23da5ac9c9483968922f.pth (torch, 70367 bytes, 3 tensors)

cnn_model.0.weight f4 [10, 1, 49, 35]
00000000: 6843 523f 1dfa 523f cc95 2a3f 213e 2b3f
00000010: c13b 2f3f f681 293f 6327 2d3f f0e8 313f
00000020: 2aad 2d3f 5de2 253f 383e 2a3f ab23 283f
00000030: 5e56 2a3f a3d7 293f 32cc 2f3f 80b8 583f
00000040: 42e9 5b3f 4adc 553f 5d08 503f 4447 283f
00000050: 893d 303f 93e0 283f 7052 303f 19bd 303f
00000060: c1ff 313f 6dd1 293f 218f 263f 6b29 2c3f
00000070: 9664 283f 01de 2d3f 2bc1 313f 6dd0 2d3f
00000080: 5947 4e3f 6b84 4c3f cda9 473c e81f f93e
00000090: 33c0 4e3e 9768 523e 7390 333e 8143 843e
000000a0: 8cb7 fb3d c08c 6b3e 48f9 3c3e 39fb 363e
000000b0: 0b6e 583e 0e0f 3e3e 78cd 5b3e 7ede 903e
000000c0: c50f 963e 4e34 383e bf43 4a3e 5e0e 593e
000000d0: e2b8 a33e a49e ab3e b546 8e3e 3f80 513e
000000e0: 821e 2d3e 6ac3 783e 7294 853e 9928 2a3e
000000f0: 753f f93d bca5 e23d aeb6 393e 9589 2e3e
00000100: 7b56 6f3e 34fa 443e 411c 5d3e 658b c83e
00000110: c13e 1b3f 2ccd e93c 2541 003f e9c3 353e
00000120: 5a71 513e a860 aa3e d414 423e a4e9 293e
00000130: 9296 853e 3a1a 523e 2458 9b3e 2a88 6f3e
00000140: d0a5 803e f635 7d3e ad50 8c3e 9b50 883e
00000150: 69b1 9c3e eb6d 8d3e 1f3b 733e 453f cb3e
00000160: f0c7 b03e 90a5 6c3e 9bc2 b33e 3206 c63e
00000170: d782 b23e ff4d 853e 1401 9c3e d0b4 7b3e
00000180: d87f 573e ccfc 863e 8fec af3e 33bc 9f3e
00000190: 810f 983e 2b42 c13e 5bca a93e 7bab 1d3f
000001a0: fc35 953c 6c96 f93e 44b1 773e 0cbf 633e
000001b0: b467 523e 14ec 513e 9509 9f3e a6f7 483e
000001c0: 649d a03e 5839 5a3e 18fd 623e 8957 8c3e
000001d0: e55f 823e 03af 2f3e 26c6 823e dffe 963e
000001e0: df53 253e c794 813e 5198 a33e b17a 9d3e
000001f0: 74b2 983e 6863 793e 69a0 9c3e 077e 953e
00000200: c3e3 9c3e ee5c 963e 4b34 a23e ed3e 843e
00000210: 7799 813e 249f 2a3e 8dfa 5f3e d07b 913e
00000220: 84c2 8c3e a260 c33e 43ee 143f c7d9 a73c
00000230: 0026 ff3e c713 7e3e 480c e33d cf7d 0d3e
00000240: 23ca ea3d c194 ff3d c972 8f3e 2963 0c3e
00000250: 0c83 403e e436 723e 0eda 893e 773b 733e
00000260: 4eef 803e 76f2 523e 2602 863e f805 963e
00000270: 0b45 643e 0331 aa3e ffbc b73e f446 9a3e
00000280: 9bf8 833e 2af1 af3e 67e6 483e 96ff 753e
00000290: 8360 9e3e 6a7a 5d3e bd0d 7c3e 87f7 873e
000002a0: 8734 293e 34f5 a63e 8ed9 b53e 1e92 a53e
000002b0: 669f d33e a41b 1c3f 5b89 893c 675c f43e
000002c0: cb64 443e e9ec 673e 1dc1 7d3e edd0 433e
000002d0: 929d 243e 474c 183e 5f81 053e b2fb 113e
000002e0: 5252 173e 6fec 0f3e 4c33 ac3e a1dd 8d3e
000002f0: 2d14 463e b746 8e3e 12ec a93e da2f 563e
00000300: cc08 933e e011 9c3e 7e12 d03e 840a 013e
00000310: b031 863e f20c 6c3e 3d1d 3a3e 458f df3d
00000320: 2849 093e a33d 203e 0b2a 393e 789e 4c3e
00000330: d6c9 503e 641b 453e fcee 983e 4530 a63e
00000340: f93d 163f cc40 ec3c 0294 033f a83c 583e
00000350: a7c5 323e 7c53 2f3e e055 373e 6274 aa3e
00000360: 4f04 6d3f 9a3f 6e3f 0142 683f 136a 723f
00000370: e003 2e3e 6e1b 333e 626f 4f3e ba92 843e
00000380: e4b6 4a3e 0a99 7b3e 332c 463e 3480 833e
00000390: bd04 a23e 5c87 af3e 9f83 7c3e e8dd 6a3e
000003a0: 5f02 923e 7333 6c3f 36d8 683f bd1f 693f
000003b0: d9e3 663f a740 733f 9ca6 173e cb9e 3b3e
000003c0: 9a03 893e b3b9 863e 8311 9f3e 5d97 1c3f
000003d0: 893f 3a3c 168a 003f fb7b 8f3e fc77 4d3e
000003e0: 2ba0 923e 7801 683f 2681 603f 0c4e 8cbe
000003f0: cf14 64be 3d45 65be f844 97be 8b68 5d3f
0.82134104 0.8241289 0.6663482 0.66891676 0.6845055 0.6621393 0.67638224 0.6949606
0.6784235 0.6479853 0.6650119 0.65679425 0.66538036 0.6634466 0.6867095 0.84656525
0.859028 0.8353926 0.8126276 0.6573374 0.68843895 0.65967673 0.6887579 0.6903854
0.69530874 0.66335183 0.6506215 0.672507 0.6577848 0.67916876 0.69435376 0.6789616
0.8057762 0.79889554 0.01218648 0.48657155 0.20190506 0.2054771 0.17535572 0.2583275
0.12290868 0.2300291 0.18454468 0.17869271 0.21135728 0.1856043 0.21465099 0.28294748
0.29308906 0.17988703 0.19752406 0.21196887 0.31976992 0.3351947 0.2778832 0.20459078
0.16906169 0.24293295 0.26089817 0.1661705 0.121703066 0.110667676 0.18136093 0.17044671
0.23372833 0.1923607 0.2159281 0.3916885 0.6064263 0.028540216 0.500994 0.17750515
0.20453396 0.33276868 0.18953258 0.16593033 0.2609144 0.20517817 0.30340683 0.23391786
0.25126505 0.24727616 0.274053 0.26623997 0.30604103 0.27622923 0.23753022 0.39696708
0.3452754 0.23110032 0.3510941 0.38676602 0.34865448 0.2603607 0.30469573 0.24580693
0.21044862 0.26364744 0.34360167 0.31198272 0.2969933 0.37745795 0.33162197 0.61589783
0.018214218 0.48747575 0.24188715 0.22240847 0.20547372 0.20500213 0.31061998 0.1962572
0.3137008 0.21310937 0.2216686 0.27410534 0.25463787 0.17156605 0.255418 0.29491326
0.16145276 0.2530882 0.31952146 0.3075767 0.2982365 0.24354327 0.30591133 0.29197714
0.30642518 0.29367775 0.3168052 0.2582926 0.25312397 0.1666227 0.21872921 0.28414774
0.27492154 0.38159662 0.5817606 0.020489587 0.4983368 0.24812232 0.11086327 0.13817523
0.11464336 0.124795444 0.28017262 0.13709702 0.1879999 0.23653752 0.26924175 0.23753153
0.25182575 0.20600304 0.26173514 0.2930143 0.22291963 0.33240518 0.3588638 0.30132258
0.25775608 0.3436368 0.19619142 0.2402328 0.30933008 0.21628729 0.24614616 0.26556036
0.16523944 0.3260895 0.35517544 0.3233804 0.4133255 0.60979676 0.016789129 0.47726747
0.19179074 0.22648968 0.24780698 0.19122668 0.16075733 0.14872847 0.13037632 0.1425617
0.14777496 0.14055036 0.33632886 0.27708152 0.19343634 0.27788326 0.3318792 0.20916691
0.2871765 0.30482388 0.40639108 0.12601668 0.26209784 0.23051813 0.18175216 0.10915998
0.13406813 0.15648513 0.18082444 0.19982326 0.20389494 0.1924873 0.2986983 0.32458702
0.5868831 0.028839491 0.51397717 0.21116889 0.17458211 0.1712169 0.17903852 0.33291918
0.925847 0.930658 0.90725714 0.94693106 0.16993666 0.17490932 0.20257333 0.25893193
0.1979633 0.24570099 0.19352798 0.2568375 0.3164424 0.34282959 0.24659584 0.22936213
0.28517434 0.92266005 0.9095491 0.91064054 0.9019142 0.95020527 0.1480965 0.18322293
0.2676056 0.26313552 0.31068048 0.6116846 0.011367687 0.502107 0.28024277 0.20065302
0.28637823 0.9062724 0.87697065 -0.27403295 -0.22273563 -0.22389694 -0.29544806 0.86487645

cnn_model.0.bias f4 [10]
00000000: f1ae 0a3e dcbb 263e 290f f13d fede 263f
00000010: 343e 1d3e 0392 f0bc f8b8 ee3e 14fc 99bb
00000020: c0a2 193f e046 323e
0.13543297 0.162826 0.1177047 0.6518401 0.1535576 -0.029366499 0.46625495 -0.0046992395
0.6001396 0.17409849

cnn_model.2.weight f4 [1, 10, 1, 1]
00000000: 7fff a6bf 9e6d a1bf 0c0c 9ebf a76e 313f
00000010: a7b7 8abf 4737 473e 8667 7d3f 6a3f bc3d
00000020: 8529 383f 47af 84bf
-1.3046721 -1.2611578 -1.2347426 0.6930947 -1.0837296 0.1945468 0.9898609 0.09191783
0.71938354 -1.036599
