annotator/static/models/es_628e2fbb73b643cc01ee7c79.pth (torch, 84511 bytes, 3 tensors)

module.cnn_model.0.weight f4 [10, 1, 39, 53]
000000 65 e7 3f 3c 86 a4 d3 39 df d0 3d ba dc 48 92 3b
       0.011712884 0.00040367636 -0.0007240902 0.004464252
000010 2c 4d 56 3c 49 5f 03 3d e1 bd b4 3c 13 b5 09 3d
       0.013079923 0.032073293 0.022063198 0.03361995
000020 15 e0 c9 3c 3e 4e f7 3c df 20 49 3c 2e 86 f7 3c
       0.024642983 0.030188676 0.0122759035 0.030215349
000030 07 77 b8 3c e2 59 f8 3c f1 53 b0 3c ee e2 92 3c
       0.022517694 0.030316297 0.021524401 0.017930474
000040 28 e9 af 3c 64 cb c2 3c c0 e5 72 3c 64 4d 35 3b
       0.021473482 0.023778625 0.0148252845 0.0027664537
000050 df de a7 3c ba 0f 9c 3c 4d fb 3d 3c 8b 94 dc 3c
       0.020492015 0.019050468 0.011595559 0.0269263
000060 37 4d b9 3c 73 e5 d9 bb 0b f0 18 3c 3d e6 a3 3b
       0.022619827 -0.006649667 0.009334574 0.005001812
000070 90 80 d6 ba ac 54 96 bb c2 60 0b 3c 50 cd f7 3c
       -0.0016365219 -0.0045877304 0.008506956 0.030249268
000080 bb 51 9b 3c c1 99 3c 3c ee 40 99 3b 86 30 33 bc
       0.01895987 0.011511267 0.0046769297 -0.010936862
000090 00 73 c1 3c ab 45 fb ba 71 31 ff bb ca f0 53 bb
       0.023614407 -0.0019170543 -0.0077878763 -0.0032339566
0000a0 2c e2 cb bb a9 3a 37 3b 2d 59 de 3c 40 06 55 bc
       -0.00622203 0.0027958548 0.027142132 -0.013001978
0000b0 ef e2 03 ba 20 52 0e 3d a8 ce 58 3b 15 56 c4 3c
       -0.0005031069 0.03474629 0.003308216 0.023966828
0000c0 f0 e2 f3 3c 29 ae eb 3c 0d 1c f4 3c ca 21 be 3c
       0.029771298 0.02876957 0.029798532 0.023209471
0000d0 aa d5 d3 bb 72 e0 84 3c 4a f5 07 3d 2f 2f f1 3c
       -0.0064646797 0.016220305 0.03319291 0.029441444
0000e0 d6 d8 e4 3b a9 7d af 3a d5 ef fd 3c f5 cd 80 3c
       0.0069838567 0.001338889 0.03099815 0.015723208
0000f0 6c f6 e0 3c e2 63 65 3c a0 03 18 3d 2d b7 a2 3b
       0.027461253 0.014000865 0.037112832 0.004965684
000100 76 f5 08 bc c8 7c 4c bb 76 60 3d bc d6 87 97 3b
       -0.008359304 -0.0031202305 -0.011558643 0.004624347
000110 81 e6 6c 3c 0d 95 ba bb 5d 35 06 3d 12 85 8e 3c
       0.014459253 -0.005694038 0.032765735 0.017397437
000120 b4 04 07 3d 1d 40 77 3c c1 8a 9c 3c 18 0e 60 3c
       0.03296347 0.015090969 0.019109132 0.013675235
000130 6d 67 f5 3c 9d 25 d6 3b bb 00 88 3c e4 40 68 3c
       0.029956544 0.0065352456 0.01660191 0.014175627
000140 df 01 a5 ba 78 57 b3 3c d8 37 9e bb 3f 17 89 bb
       -0.0012589059 0.021892294 -0.0048284344 -0.0041836794
000150 64 51 e0 3c 4c e7 ee 3c 17 ad 02 3d f4 b5 78 3b
       0.02738256 0.029163025 0.031903353 0.003795025
000160 d2 6a 1c 3c f0 bf 9c bb ee dc 07 bb 5e b0 d0 3c
       0.009546952 -0.004783623 -0.002073105 0.025474723
000170 78 10 04 bc 77 ef 40 ba 0d d3 e5 bb df 0a 3e bc
       -0.008060567 -0.0007359902 -0.0070136846 -0.011599272
000180 f8 94 48 3c b1 21 a0 3c 1c 81 4d 3c 51 93 ce bb
       0.012242548 0.019547315 0.012542989 -0.0063041826
000190 ba 00 ab 3c 11 86 c6 3a c0 55 b5 3c 4d 97 ee 3c
       0.02087437 0.0015146156 0.022135615 0.02912488
0001a0 32 7b 19 3c 0d 7f e7 3c ff d4 2c ba f5 5b a7 3c
       0.009367751 0.028258825 -0.0006593018 0.02042959
0001b0 a6 12 bb bb d0 90 2c bc 49 ce 23 3c fe c9 ca 3b
       -0.00570901 -0.010532573 0.009997913 0.00618863
0001c0 50 53 ec 3c 5b bd 1b bb 95 06 a2 3c 90 ff c2 3c
       0.02884832 -0.0023763988 0.01977853 0.023803502
0001d0 31 9e 8a 3c b1 d7 d3 3b 3b 49 a3 3c ea a8 58 3b
       0.016921135 0.0064649214 0.01993238 0.0033059665
0001e0 61 76 00 ba 30 45 47 3c a8 c5 90 3c d6 fc e5 3c
       -0.00049004523 0.012162492 0.017672375 0.028074663
0001f0 34 fa 62 3c 54 04 05 3c 15 a8 e1 3b 56 75 dc 3a
       0.013853598 0.008118708 0.006886492 0.0016819637
000200 26 59 ed 3c ad 9e f1 3a c7 3e 15 3c 84 1c 5c 3b
       0.028973173 0.001843413 0.009109206 0.0033586333
000210 9a 54 20 3b 00 02 87 3c 99 8a a1 3c f1 7e 26 bc
       0.002446449 0.016480446 0.019719409 -0.010162101
000220 a8 63 43 3c 09 42 08 3d 7d a1 34 bc d2 2c aa 3c
       0.011925615 0.0332661 -0.01102483 0.020773325
000230 cc 70 c0 3a e6 bb 41 3c f1 79 62 3a d8 26 6b 3b
       0.0014682054 0.011824584 0.00086393865 0.0035881307
000240 32 d9 67 3c aa 5a 3c bc bc 1a 89 bb 4d 8f 84 3c
       0.0141509045 -0.011496225 -0.004184095 0.016181612
000250 3c fb 8a 3c 9f 1b 93 3c d1 ea c7 3b 7f 1a 49 bc
       0.016965501 0.017957507 0.0061009903 -0.012274384
000260 1e 6d da 3a 80 d0 96 3b e3 d5 c6 3c 3c dd e7 3b
       0.00166646 0.004602492 0.024271911 0.0070759337
000270 a1 eb e7 bb 7e c1 bb 3c 96 9f f9 3c 96 ee 62 3c
       -0.0070776497 0.022919413 0.030471604 0.013850829
000280 db d5 80 3c 52 db 24 3b ff de c6 ba c6 a1 15 bc
       0.015726974 0.002515514 -0.0015172659 -0.009132808
000290 c2 0c ac 3c e1 1a a9 3c 7c e2 04 3c d8 f2 63 3c
       0.021002177 0.0206427 0.008110639 0.013912879
0002a0 8a 91 39 bc 3e 6f f0 bb 02 5f 68 3c 3a 57 92 3c
       -0.011326203 -0.00733748 0.014182808 0.017863858
0002b0 bf ae 7e 3c ec a4 8b bb dc fc 06 3d 40 fb e1 3c
       0.015544592 -0.0042616036 0.03295599 0.027585626
0002c0 a1 2d f0 3a cf b2 9e 3c fc da ec 3b a1 00 81 3c
       0.0018324145 0.019372372 0.0072282534 0.01574737
0002d0 48 03 db ba c4 99 bc bb f8 60 cb bb 1c 37 54 3c
       -0.0016709352 -0.005755635 -0.006206628 0.012952592
0002e0 8c bf 7d 3c b0 7d 51 3c 0c 48 08 bc 71 a8 64 b8
       0.015487563 0.012786314 -0.008317959 -5.451631e-05
0002f0 3f 5b 69 3b e2 37 73 3b d9 20 e8 3c 5f 9e b2 3c
       0.0035607365 0.0037112166 0.028335975 0.021804033
000300 36 82 6b 3c 6c 1c 23 3c af 59 25 bc 8c 3e f5 3c
       0.014374306 0.009955507 -0.010092183 0.029937051
000310 8a 54 8c bb 95 58 94 3c 93 a6 cb 3c 36 ce 86 3c
       -0.004282539 0.018108645 0.024859702 0.01645575
000320 83 67 f6 3c 6f b0 9b 3c 47 1f 4d 3b c3 29 2c 3c
       0.030078655 0.019005029 0.003129916 0.010508004
000330 e4 86 2d 3c bf 98 62 3c 4a 43 4f 3c a3 b7 f2 ba
       0.010591242 0.013830363 0.01265032 -0.0018517863
000340 a8 13 95 3b 17 c8 ad 3c b0 a7 c6 3c fa ce a7 3c
       0.0045494623 0.021213574 0.024249882 0.020484436
000350 e7 4f 19 bb de e3 2e 3c 23 4d c8 3c 2d bb 11 bc
       -0.0023393573 0.010674445 0.024450844 -0.008894724
000360 dd 23 46 3c cc 64 1b 3d f1 bf 31 3c 54 1b 21 3d
       0.012093511 0.037937924 0.010848985 0.039332703
000370 2c c3 0e 3c ed 38 df 3c 13 46 f3 3b 0d 4c 29 bc
       0.008713525 0.027248824 0.007424125 -0.010333073
000380 48 48 25 3c 97 35 2e 3c 5b ed a6 bb eb 4c 57 bb
       0.010088034 0.010632894 -0.005094213 -0.0032852243
000390 b7 0d df 3c 7d 3b 40 ba 24 11 b5 3c e4 72 32 3c
       0.02722822 -0.0007333083 0.0221029 0.01089165
0003a0 e7 e8 15 3c 3c a8 e2 3b 78 aa 5c bc e7 ac b1 3c
       0.0091497665 0.0069170278 -0.013468377 0.021688892
0003b0 59 0b 4c bb 99 d9 b4 3c 49 62 04 3b 76 a7 24 3b
       -0.0031134693 0.022076415 0.0020200184 0.0025124229
0003c0 86 53 f5 3c 50 9c 21 bc 11 7c f0 3b a6 96 f6 3c
       0.029947054 -0.009863928 0.0073390086 0.030101132
0003d0 d0 c5 22 3c 96 33 0b 3d db 63 8c 3c 1f 01 0a 3c
       0.0099348575 0.033984743 0.017137459 0.008423119
0003e0 e6 4d c5 3c 65 33 ba 3c 98 e9 ea bb 82 b2 bf bb
       0.024084996 0.022729585 -0.00716896 -0.005850137
0003f0 a0 ad f0 3a b3 f3 e2 3c 7e 5a d1 3c a4 78 e0 3c
       0.0018362291 0.027704095 0.025555845 0.027401276

module.cnn_model.0.bias f4 [10]
000000 3a bb c4 3c a0 2f ab 3e 4e 7f a3 3e a3 70 0a 3e
       0.024015058 0.33434772 0.31933063 0.1351953
000010 1d bd a7 3e dd 18 fe 3d 44 41 a7 3e 86 41 f4 3d
       0.3276147 0.12407086 0.3266698 0.1192656
000020 75 37 38 3c ff ae 3a 3e
       0.011243691 0.18230818

module.cnn_model.2.weight f4 [1, 10, 1, 1]
000000 d3 3e a5 be f1 99 95 bf b5 98 a7 bf 12 37 83 3f
       -0.32274494 -1.1687604 -1.3093477 1.0251181
000010 13 39 a5 bf 37 f3 81 3f 41 5c 92 bf c4 8b 7e 3f
       -1.2908043 1.0152348 -1.1434404 0.99432015
000020 89 9a 84 3e 27 9c 4f 3f
       0.2589915 0.81097645
