annotator/static/models/he_628e1b785ac9c94839689134.pth (torch, 129183 bytes, 3 tensors)

cnn_model.0.weight f4 [10, 1, 49, 65]
000000 7f fd 79 ba 74 72 14 bc cf 45 0d bb b7 20 0d 3c
       -0.000953637 -0.009060491 -0.0021556502 0.008613757
000010 1e 98 85 3b 3d f8 98 bb 80 7a 8b b9 d0 3b 80 bb
       0.0040769717 -0.004668264 -0.00026603416 -0.00391338
000020 3c 37 1b bc 38 eb 43 3b 2a 01 b7 bc 43 ad 96 bc
       -0.009473618 0.002989484 -0.022339422 -0.018393165
000030 79 75 f8 3b 5c ac 89 3b 43 d7 c6 ba a0 24 ab bc
       0.007582363 0.004201455 -0.0015170354 -0.020891488
000040 27 9c 3f bc 15 f7 87 bc d3 90 1c bc 4f 54 d5 bb
       -0.011694944 -0.01659731 -0.009556013 -0.0065102945
000050 53 75 3a bc f5 87 8d ba f9 ec 94 bc a0 60 00 3b
       -0.011380511 -0.0010797965 -0.018179404 0.0019588843
000060 ff 69 a6 bb 9f e3 d1 bb c8 68 af bc d8 76 39 bc
       -0.0050785537 -0.0064053084 -0.021412268 -0.011319838
000070 8a f2 83 bc 7d f2 71 bb c4 00 64 bb f0 bf a4 bc
       -0.016106863 -0.0036918216 -0.0034790495 -0.020111054
000080 d3 e4 2f bc 78 50 91 bc fb 9f bd 3b 86 f5 24 bc
       -0.010735708 -0.017738566 0.0057868934 -0.010068303
000090 36 50 3f bc 0a 72 67 bc 26 37 4d 3b 51 1b cf 3a
       -0.011676839 -0.01412631 0.0031313389 0.0015800988
0000a0 3c 35 99 bc 83 f9 1a bc 39 e4 a4 bb 2f dc 36 bb
       -0.018702142 -0.009458902 -0.005032089 -0.0027902236
0000b0 d5 e0 2a bb 37 ed 8c bc 46 2e 82 39 e6 95 d3 ba
       -0.0026073952 -0.017202957 0.0002483001 -0.0016142696
0000c0 3d 7a 0b 3b e7 65 9e bc a1 0d 80 bc f1 5f c1 bc
       0.0021282576 -0.0193357 -0.015631499 -0.023605319
0000d0 83 ec bd bc 21 c9 ab bc ea 86 f0 bb b7 b3 de 3b
       -0.023184067 -0.02096993 -0.0073403018 0.006796326
0000e0 da a4 91 3b 28 5b 8e ba c5 f0 b2 3b be 9a f7 bb
       0.0044447007 -0.0010860907 0.005460831 -0.0075562885
0000f0 59 56 13 3c d3 44 a7 bc fc e1 b7 bc db 5b 16 bc
       0.008992755 -0.02041856 -0.022446625 -0.0091771735
000100 82 d8 5f bc bd 5b 8e bc 7f 99 58 3b 29 80 9e bb
       -0.013662459 -0.017377729 0.0033050475 -0.004837055
000110 11 ea 11 3b f3 2b a0 bc 59 5d d3 bb 9d 78 34 bc
       0.0022264759 -0.019552207 -0.006450337 -0.011015085
000120 1a e7 57 bc 0e 81 3b 3c ac dd e8 b9 64 c3 55 bc
       -0.0131776575 0.011444343 -0.00044415647 -0.013047073
000130 b3 05 82 bb 16 b5 13 bc 79 ba 8e bc 54 c3 14 3b
       -0.0039679646 -0.009015342 -0.017422901 0.0022699432
000140 94 36 e1 3b 50 7e b9 bc b4 3c ed ba 1a 73 e0 3b
       0.0068729613 -0.022643238 -0.0018099756 0.0068496587
000150 3a b8 85 bc 4d 27 9b bc ad f7 95 bb 0f e4 9f 3b
       -0.016323198 -0.018939639 -0.0045766444 0.0048794816
000160 f6 cd be 39 ea 3a 85 bc 0c a2 99 ba 75 a2 25 bb
       0.00036393077 -0.016263444 -0.0011721267 -0.0025273834
000170 dc e5 34 3c fb 47 27 3c a7 ef 9e 3b 42 87 5b 38
       0.011041131 0.010210033 0.004850346 5.2339637e-05
000180 43 65 b6 3a a4 ae 1c bc f2 f6 8c bc 3f b7 80 ba
       0.0013915676 -0.009563122 -0.017207596 -0.0009820237
000190 74 58 4f bb 31 30 99 bb e5 bb 14 bc ad 3b a7 bc
       -0.0031638416 -0.0046749343 -0.009078001 -0.020414198
0001a0 7e 81 f6 bb f4 7f 34 bc 4f 23 42 bc 61 a9 54 3b
       -0.007522761 -0.0110168345 -0.011849239 0.003244959
0001b0 1c 93 57 bc 25 de f6 3b 32 a2 b3 bb 40 ac c2 3b
       -0.013157632 0.007533806 -0.0054819817 0.005940944
0001c0 90 82 3f 3c 7e 97 8f bc ff 7e be bc 81 bc 2b bb
       0.011688843 -0.017528292 -0.023253916 -0.0026204886
0001d0 3a 3e be bb 94 fe 27 bc bc 68 2c 3c 15 60 7f bb
       -0.005805758 -0.010253567 0.0105230175 -0.0038967181
0001e0 aa a3 b1 bc 23 55 a2 bc c4 ef 09 ba 3f e5 94 bc
       -0.021684486 -0.019815987 -0.0005261863 -0.01817572
0001f0 89 a1 94 bc 70 44 91 bc cd a2 48 bc 0e 94 93 bc
       -0.018143432 -0.017732829 -0.012245846 -0.018014934
000200 3a 9f 12 3c f3 b1 87 bb 22 f6 87 bb e9 97 73 3b
       0.008949095 -0.0041410862 -0.0041492144 0.0037169403
000210 e0 4b 87 bc e2 40 8a 3a 5d 5c 38 3c b4 3a 80 3b
       -0.016515672 0.0010547901 0.01125249 0.003913248
000220 64 0d 58 3b 76 43 6e bb ec 25 09 3c 9a 60 af bc
       0.0032966966 -0.0036356128 0.008370858 -0.021408368
000230 62 d3 9e bc d6 d1 96 bb 8a 2e a8 bb 45 a9 3c bc
       -0.019387905 -0.004602651 -0.005132501 -0.011514966
000240 96 12 7c 3a 8b 2d e7 bb d0 ac dc bb 4c 9b 8f bb
       0.00096158066 -0.0070549897 -0.006734468 -0.0043825265
000250 4d ea 2e bb 28 50 03 bc 22 0c 0d bb 68 4a c3 3b
       -0.0026689947 -0.008014716 -0.0021522124 0.0059597977
000260 9c d5 4c bc 40 d8 02 3c 56 7e 70 bc 5c 6e 99 3b
       -0.0125021 0.007986128 -0.014678558 0.0046823453
000270 e2 d7 e2 bb ef b4 44 3b 76 d8 86 3b 20 2c be bc
       -0.006922708 0.0030015071 0.0041151596 -0.0232144
000280 ad 5f 35 39 65 b1 ad bc ea e7 a7 bc 5c c4 ef 3b
       0.00017297147 -0.021202752 -0.020496327 0.007317109
000290 dc ca a3 bc 21 e9 19 ba 11 08 36 bb 26 b8 b3 bc
       -0.019994192 -0.0005871226 -0.0027775804 -0.021938395
0002a0 e0 05 11 bc ef 53 a1 bc 7a 23 6e bc 8a 57 a2 bc
       -0.008851498 -0.019693343 -0.014534825 -0.019817133
0002b0 c2 f8 9d bc ec a6 f4 3b 3d e9 17 bc 3f 82 5c 3b
       -0.019283656 0.0074661877 -0.009271917 0.0033646969
0002c0 cc 40 88 ba 33 80 c9 3b ee 45 cc 38 91 1c b9 bc
       -0.0010395288 0.0061493157 9.7405034e-05 -0.02259663
0002d0 6e 2e ab 3b 16 bb 95 bc 6a c7 5c bc 3f 5d 01 bc
       0.0052240407 -0.018277686 -0.013475278 -0.007895767
0002e0 ef 64 75 bc 4c 51 76 bc 7d b6 bb 3b 93 46 21 3c
       -0.014977678 -0.015034031 0.0057285414 0.009843486
0002f0 66 c3 17 bc 06 86 22 3a 65 1b be ba d4 dc b9 bc
       -0.009262895 0.00061997806 -0.0014504014 -0.022688307
000300 22 9c 06 bc 88 02 bf bc b2 8c 06 bb a2 23 27 bc
       -0.008215936 -0.023316637 -0.0020530638 -0.010201367
000310 b1 7f 85 bc 92 ca 95 bc 17 7c 9a bc 51 4e a1 3b
       -0.01629624 -0.01828507 -0.018857999 0.004922666
000320 d9 b8 1d 3a ab fa 90 bc 5c 0c 89 bc 15 c9 a5 bb
       0.0006016619 -0.017697653 -0.016729526 -0.0050593712
000330 62 eb d0 bb f6 fa 63 bc bf 43 55 bc ab 4f 9c bc
       -0.006375716 -0.013914814 -0.01301664 -0.019080957
000340 78 4e 04 3c 51 9c 91 3a a8 5d 3a bc 88 b0 27 3c
       0.008075349 0.0011109208 -0.011374868 0.010234959
000350 ee a2 74 bc d8 0b 24 3a 89 3d 22 bc 8a 00 b5 bc
       -0.014931424 0.00062578684 -0.009902366 -0.022094984
000360 35 18 48 bc ed b2 37 3c c3 e7 b9 bc a4 1b ea bb
       -0.012212803 0.011212093 -0.02269352 -0.0071444083
000370 9f 18 c6 ba 5f 5a 3f 3c 6a 68 b2 bc 58 00 1a bc
       -0.0015113539 0.011679261 -0.021778304 -0.009399496
000380 bb 00 a9 bb 1a c5 8a bc d2 11 34 bc 03 02 22 bc
       -0.005157558 -0.016939688 -0.010990577 -0.009888175
000390 22 97 31 bc d7 e0 11 bc 87 1a a8 bc f6 2e e9 3a
       -0.0108392555 -0.008903704 -0.020520462 0.0017790485
0003a0 59 44 9f bb c7 d7 05 3c 81 ff e3 3b 79 ec c2 bb
       -0.0048604426 0.008169121 0.0069579487 -0.0059486
0003b0 b1 cb 24 3b 40 c6 99 bc 75 27 be bc 4e 03 86 3b
       0.0025145824 -0.01877129 -0.023212174 0.0040897494
0003c0 26 26 c5 ba e9 d6 18 bc 3a 88 a0 bc 7b b9 af bc
       -0.0015041276 -0.009328582 -0.019596208 -0.021450749
0003d0 44 19 55 bc f2 fe 09 bb fc 1d 63 bc c5 0d 24 bc
       -0.013006512 -0.00210565 -0.013862129 -0.010013049
0003e0 74 92 26 bc a6 02 93 3b 1c 36 9e bc 4c 02 26 bc
       -0.010166753 0.0044863997 -0.01931291 -0.010132384
0003f0 6c 45 85 bc f5 25 9d bb 3f 18 c9 bb 96 36 7c bc
       -0.016268454 -0.0047957846 -0.0061369236 -0.015393874

cnn_model.0.bias f4 [10]
000000 28 5f 2e bc bd b2 bc bc 11 f2 55 3d 20 d7 af 3d
       -0.010642804 -0.023034448 0.052232806 0.08585954
000010 59 89 bc 3c 1b 0a 64 3f ac 63 9a 3d 25 ed 73 3d
       0.023014711 0.8907792 0.07538542 0.05955233
000020 9c 57 55 bc 47 70 a2 3d
       -0.013021376 0.079315715

cnn_model.2.weight f4 [1, 10, 1, 1]
000000 b8 1a cf 3d 07 bd 82 3e 9a 70 96 bf e8 84 98 bf
       0.10112518 0.2553484 -1.1753113 -1.191556
000010 e8 41 fd bd 70 b6 96 3f 29 7f a1 bf 0b 51 a9 bf
       -0.12366086 1.1774426 -1.2616931 -1.3227857
000020 b9 88 1a 3e ed 1d 93 bf
       0.15091218 -1.1493508
