annotator/static/models/he_628e0c73660274a0ff575391.pth (torch, 146719 bytes, 3 tensors)

module.cnn_model.0.weight f4 [10, 1, 51, 71]
00000000: eacb 3f3f 0e92 2e3f 3d93 323f c954 323f
00000010: cca9 343f 4dcf 323f ac5a 393f 2344 353f
00000020: eeb8 323f 9a6a 313f 99e9 2b3f 3b08 3c3f
00000030: cc15 323f 24ef 3b3f d360 313f c780 333f
00000040: c4c2 353f 315b 313f 4450 3b3f 8db8 323f
00000050: 0368 3a3f 3a96 353f cefc 373f 092d 2e3f
00000060: 61c1 2f3f 92e1 2e3f 1642 313f 4a18 383f
00000070: 325c 383f d9c8 2f3f 8b42 2c3f a3ff 3b3f
00000080: 56a6 2f3f 6f50 383f d7aa 2a3f 6b71 2e3f
00000090: 9319 2c3f 75ae 353f 3c0b 333f 9e55 2b3f
000000a0: 3575 333f 3ab0 353f 8300 353f f607 393f
000000b0: 18be 3a3f 77e0 3b3f e7bb 3e3f 3102 3d3f
000000c0: 566e 313f ed23 383f 2b06 3b3f 15df 2a3f
000000d0: f130 393f ff5a 3a3f 5f4d 3b3f 727d 3b3f
000000e0: b93c 313f e1ac 333f cbc8 343f 9b1e 373f
000000f0: 897b 353f 5ce5 333f ed41 3d3f 6177 393f
00000100: f912 363f cd8a 363f 4838 3e3f 6850 363f
00000110: 0178 3a3f 3aca 383f 70de 263e 84f9 ed3e
00000120: 7368 553e 94da 473e dddb 3a3e 8c21 423e
00000130: e045 3c3e caf5 583e 17d4 613e e651 663e
00000140: 3a9e 5b3e e91f 443e 93aa 573e dee5 523e
00000150: 0ecc 443e 253a 3e3e 2272 313e 10e2 603e
00000160: 43a3 4a3e ac97 473e a81b 2e3e 92f8 573e
00000170: 6cc3 603e 50d6 623e 20db 5a3e 9513 3f3e
00000180: d08c 2e3e 68f7 383e cf24 3b3e ab4a 653e
00000190: 9b7c 4e3e 69a6 523e fbec 663e 5316 4a3e
000001a0: 1ebd 543e f94e 4b3e 1ee8 3a3e 0b58 3e3e
000001b0: e084 463e e488 453e f8a2 493e 8248 543e
000001c0: 0240 6c3e ae72 6f3e 25b7 763e f3c7 823e
000001d0: 3dd6 743e 6bdd 7e3e 3aa7 623e 85e7 533e
000001e0: 3017 593e 6300 703e b335 463e 274f 6c3e
000001f0: e1e2 6b3e 87df 793e cd71 723e 8036 693e
00000200: 0f79 593e ed93 5b3e eed7 5f3e 06a3 413e
00000210: 8309 583e a45d 813e fff4 703e 6893 5a3e
00000220: 0463 693e de01 573e bc32 4d3e 7810 723e
00000230: 88c6 fc3e ce36 a03c fd98 fe3e dc9c 713d
00000240: 3d27 2b3d 322b 473d a925 813d d4fd 243d
00000250: e783 893d 8dcf 843d 0013 5c3d e27e ba3d
00000260: 64f5 b13d f886 a73d cab5 c63d 8405 593d
00000270: 4ab0 6f3d 3a55 083d 303b c83c e29d 2a3d
00000280: 57d0 3c3d 8bf7 7a3d 67cb 853d 054d 2b3d
00000290: c377 373d 0b45 293d c89c 953d 976b f23c
000002a0: 9613 2f3d a77e 893d 27f1 733d 9a2f 893d
000002b0: b577 3a3d 6048 903d 9f8d 953d 2c58 663d
000002c0: 4c00 7c3d e6c5 533d 1d24 633d 530a 8b3d
000002d0: 1db1 0e3d a4de 2e3d 3176 1f3d 5068 683d
000002e0: 070b 923d fd88 9c3d 8dd0 b13d d790 c03d
000002f0: 09d6 a63d e86b 433d 7e3e 513d 866e 4f3d
00000300: b964 7c3d de45 383d d428 643d 5f78 a33d
00000310: a250 4f3d 7d47 b03c 159e fa3c 548c ea3c
00000320: bda7 d83c 29ea 373d c6eb 843d ef23 d03c
00000330: 51f1 893d da46 613d b9ab 923d 3fd9 673d
00000340: c8fb 343d a700 853d a096 a43d 2cef e93e
00000350: dbe9 aa3b 3dce 013f 7f76 763d 96d3 8a3c
00000360: 2d64 683d 47c0 583d 540d 543d fc8f 7b3d
00000370: 1be7 413d 568c 413d 9322 0c3d ce7f 813d
00000380: 9387 973d e03a 573d 913b 2d3d ae0b 573d
00000390: 0a2a 6f3d 4a40 b63c d9b4 143d a283 153d
000003a0: 0b57 293d 4f1d 513d cd33 673c 0fef 663d
000003b0: 9726 213d 4dbc 213d 1fca 0c3d b8fe 333d
000003c0: ac9c e93c c019 5c3d 2be1 7b3d 6b17 6b3d
000003d0: 0c24 553d 2daf ce3d e1ab c13d 2d71 a13d
000003e0: ab27 6d3d c80b 893d f6e2 703d ea64 903d
000003f0: 744b 713d b1aa 383d cabf af3d 5b73 813d
0.74920523 0.6819161 0.6975592 0.6966062 0.7057159 0.69847566 0.7240398 0.70807093
0.6981343 0.69303286 0.67153317 0.7345006 0.6956451 0.73411775 0.6928837 0.70118374
0.71000314 0.6927977 0.7316935 0.6981285 0.7281496 0.7093235 0.71870124 0.6803747
0.6865445 0.68312943 0.69241464 0.7191206 0.7201568 0.68665844 0.67289037 0.73436946
0.68613183 0.7199773 0.6666693 0.6814181 0.67226523 0.70969325 0.6993902 0.66927516
0.7010072 0.70972025 0.70703906 0.7227777 0.7294631 0.7338938 0.74505466 0.7383147
0.69308984 0.7192982 0.73056287 0.66746646 0.72340304 0.727951 0.73164934 0.7323829
0.6923328 0.7018567 0.70618886 0.71531075 0.70891625 0.7027185 0.7392872 0.7244778
0.711227 0.71305543 0.7430463 0.7121644 0.7283936 0.72183573 0.1629579 0.46479428
0.20840625 0.19516975 0.18247934 0.1895811 0.1838603 0.21187511 0.22053562 0.2249218
0.21447077 0.19152798 0.21061163 0.205955 0.19218466 0.18576868 0.17328694 0.21961236
0.19788842 0.19491452 0.17002738 0.21090916 0.21949548 0.22152066 0.21372652 0.18659814
0.17045903 0.18063128 0.1827576 0.22391765 0.2016472 0.20571293 0.22551338 0.19735079
0.20775267 0.19854344 0.18252608 0.18588273 0.19386625 0.19290501 0.19691074 0.20730785
0.23071292 0.2338359 0.24093302 0.25543174 0.2390985 0.24889152 0.22134104 0.20693786
0.21200252 0.23437648 0.19356422 0.23077069 0.23035766 0.24401675 0.23676224 0.22774696
0.21237586 0.21443148 0.21859714 0.18909845 0.21097378 0.25266755 0.23530959 0.21345294
0.22791678 0.20996806 0.20038885 0.23639095 0.49370217 0.019557383 0.49726096 0.058987483
0.041785467 0.04862518 0.06306011 0.040281132 0.067146115 0.064849 0.053729057 0.09106232
0.08689383 0.0818004 0.09702642 0.052983776 0.05851773 0.033284403 0.024442285 0.041654475
0.046097126 0.06127123 0.065329365 0.0418215 0.044791948 0.04132561 0.07305294 0.029592318
0.042743288 0.0671361 0.059556153 0.066985324 0.045524318 0.070450544 0.07302403 0.05623643
0.06152372 0.051702403 0.055454362 0.067890786 0.034836877 0.042692795 0.038931075 0.056740105
0.071310095 0.07643316 0.08682356 0.09402626 0.08146293 0.04771033 0.051084988 0.050642513
0.061619494 0.044988506 0.055703 0.07981943 0.050614007 0.021518463 0.030592958 0.028631367
0.026447171 0.044901047 0.06490283 0.02540776 0.067354806 0.05499921 0.0716166 0.056603666
0.04418543 0.06494265 0.08036542 0.45690286 0.005215866 0.5070532 0.0601716 0.016946595
0.05673616 0.052917745 0.051770523 0.06141661 0.04733954 0.047252975 0.03421266 0.06323205
0.073989056 0.052546382 0.042293135 0.052501373 0.0583897 0.022247452 0.036305282 0.036502488
0.041342776 0.05105334 0.014111471 0.056380328 0.039343443 0.03948622 0.034372445 0.04394409
0.02851709 0.053735495 0.061494034 0.05739538 0.05203633 0.10092006 0.094566114 0.07882915
0.05789916 0.066917 0.058810197 0.07050498 0.05890985 0.04508466 0.08581503 0.063208304

module.cnn_model.0.bias f4 [10]
00000000: 69dc 6f3e 5b2c 573e 8bcd 61bb cc58 853e
00000010: 4f88 833e fa88 703e 0e7e 903e d379 683e
00000020: 3be9 593e 8d7d 8e3e
0.23423924 0.21013014 -0.0034454789 0.2604431 0.25689933 0.23489752 0.28221172 0.22702722
0.21280377 0.27830163

module.cnn_model.2.weight f4 [1, 10, 1, 1]
00000000: 6606 83bf c87e 8cbf a20d 4fbb 38e5 673f
00000010: 8966 573f 7e9b 77bf 6b99 3f3f 8b72 82bf
00000020: 2478 81bf 844a 3e3f
-1.0236328 -1.097619 -0.003159382 0.90584135 0.8414083 -0.9672164 0.7484347 -1.0191206
-1.0114789 0.7433245
