annotator/static/models/He_62389b14c3f2c6a63cc03eeb.pth (torch, 174231 bytes, 3 tensors)

cnn_model.0.weight f4 [10, 1, 59, 73]
-0.7295302 -0.7474461 -0.7311258 -0.71331143 -0.7373908 -0.7580402 -0.73017466 -0.73988074
-0.7426769 -0.7050369 -0.7433012 -0.7228017 -0.7070537 -0.75317925 -0.6991395 -0.7246087
-0.73331517 -0.74299026 -0.74455124 -0.73627585 -0.7491541 -0.7008779 -0.7338742 -0.7499096
-0.7619298 -0.6964571 -0.7663627 -0.7160738 -0.7144789 -0.7513912 -0.7344837 -0.7246218
-0.71341395 -0.6988948 -0.7721826 -0.7806828 -0.7251616 -0.722793 -0.7865146 -0.72589695
-0.739518 -0.7509279 -0.7551068 -0.7229117 -0.71620625 -0.7115327 -0.73253477 -0.75317603
-0.72442335 -0.74338573 -0.7049167 -0.74430233 -0.72156423 -0.74274635 -0.7205917 -0.76171553
-0.72099006 -0.79372144 -0.74123883 -0.75111127 -0.7008307 -0.7075734 -0.7490978 -0.7391115
-0.7371839 -0.7497493 -0.74691105 -0.758251 -0.7514122 -0.72805536 -0.7445487 -0.75008744
-0.78077996 -0.6854498 -0.69394624 -0.63259816 -0.6042993 -0.5554804 -0.65113294 -0.6678019
-0.62472916 -0.6865028 -0.63989854 -0.59907556 -0.64920926 -0.5761334 -0.57868665 -0.6325292
-0.58694446 -0.62387866 -0.6453308 -0.65134084 -0.6238302 -0.63783723 -0.6452658 -0.60965014
-0.60097516 -0.63516825 -0.60103863 -0.58357924 -0.63098305 -0.6142855 -0.64045 -0.6043489
-0.5904924 -0.6521068 -0.66061914 -0.6262249 -0.64962864 -0.6290524 -0.59718966 -0.655854
-0.6517884 -0.62786514 -0.6176991 -0.5902461 -0.5636757 -0.6196954 -0.618552 -0.60708016
-0.5984837 -0.58570415 -0.6322274 -0.6195806 -0.65346617 -0.6272401 -0.63485384 -0.57455176
-0.65746534 -0.5979775 -0.6440153 -0.57274485 -0.57311505 -0.58651036 -0.61177367 -0.6323283
-0.63771135 -0.62614024 -0.64797884 -0.6566388 -0.62827367 -0.5989598 -0.64544636 -0.648809
-0.61717284 -0.61420536 -0.59020454 -0.5714788 -0.41586393 -0.09135504 -0.094338454 -0.0957966
-0.10992645 -0.099958576 -0.11820899 -0.07185957 -0.07737836 -0.093840264 -0.07760972 -0.091164395
-0.08973701 -0.08465124 -0.08948533 -0.081267945 -0.116933495 -0.10387544 -0.103190996 -0.10018995
-0.10010525 -0.08591645 -0.07925679 -0.05949728 -0.066676304 -0.07890666 -0.06633515 -0.06396631
-0.05769368 -0.06890844 -0.07018492 -0.07307371 -0.074642844 -0.1000597 -0.09111673 -0.10045408
-0.107020184 -0.095108025 -0.07683967 -0.05672425 -0.059488453 -0.062128022 -0.09318116 -0.065337345
-0.07737408 -0.08602139 -0.065698534 -0.11054049 -0.10443667 -0.06905026 -0.07224388 -0.0701023
-0.06861302 -0.10490119 -0.08289879 -0.086439624 -0.07514628 -0.08962424 -0.08044965 -0.09431736
-0.099469855 -0.11195692 -0.11358501 -0.106516086 -0.09115985 -0.10182672 -0.10728123 -0.10124904
-0.2583945 -0.46682534 -0.53525096 -0.5806007 -0.614609 -0.45527297 -0.031150475 -0.010845898
-0.011060309 -0.021334084 -0.014013218 -0.032461464 -0.033216562 -0.013900632 -0.01767819 -0.03470928
-0.033833023 -0.0652982 -0.063531294 -0.053091478 -0.04630181 -0.027128652 -0.039891623 -0.041058816
-0.025116347 -0.042966142 -0.04803545 -0.024880368 -0.030535128 -0.037981454 -0.01207262 -0.027435888
-0.0024058823 -0.031660996 -0.009218456 -0.012991282 -0.043102477 -0.010865586 -0.05670846 -0.042105637
00000000: 7ec2 3abf a158 3fbf 0f2b 3bbf 949b 36bf
00000010: a5c5 3cbf ec0e 42bf baec 3abf d368 3dbf
00000020: 1320 3ebf 4c7d 34bf fd48 3ebf 8809 39bf
00000030: 7901 35bf 5bd0 40bf cefa 32bf f57f 39bf
00000040: 8bba 3bbf 9c34 3ebf e99a 3ebf 937c 3cbf
00000050: 90c8 3fbf bc6c 33bf 2edf 3bbf 13fa 3fbf
00000060: d50d 43bf 034b 32bf 5930 44bf 9d50 37bf
00000070: 17e8 36bf 2c5b 40bf 2007 3cbf d080 39bf
00000080: 4ca2 36bf c5ea 32bf c2ad 45bf d4da 47bf
00000090: 31a4 39bf f608 39bf 0559 49bf 62d4 39bf
000000a0: 0d51 3dbf d03c 40bf ae4e 41bf be10 39bf
000000b0: 4b59 37bf 0227 36bf 6687 3bbf 25d0 40bf
000000c0: cf73 39bf 874e 3ebf 6c75 34bf 998a 3ebf
000000d0: 6fb8 38bf a024 3ebf b378 38bf caff 42bf
000000e0: ce92 38bf 5431 4bbf d4c1 3dbf d448 40bf
000000f0: a469 33bf 8823 35bf e0c4 3fbf 6936 3dbf
00000100: 16b8 3cbf 92ef 3fbf 9035 3fbf bd1c 42bf
00000110: 8d5c 40bf d661 3abf be9a 3ebf bb05 40bf
00000120: 32e1 47bf a379 2fbf 76a6 31bf f4f1 21bf
00000130: 5cb3 1abf f733 0ebf a6b0 26bf 11f5 2abf
00000140: 40ee 1fbf a6be 2fbf 64d0 23bf 045d 19bf
00000150: 9432 26bf 7a7d 13bf cf24 14bf 6fed 21bf
00000160: fe41 16bf 83b6 1fbf 6634 25bf 46be 26bf
00000170: 56b3 1fbf 4d49 23bf 2430 25bf 0812 1cbf
00000180: 82d9 19bf 639a 22bf abdd 19bf 7365 15bf
00000190: 1b88 21bf d141 1dbf 88f4 23bf 9cb6 1abf
000001a0: 832a 17bf 79f0 26bf 561e 29bf 4650 20bf
000001b0: 104e 26bf 9409 21bf 6ce1 18bf 0ce6 27bf
000001c0: 9bdb 26bf c5bb 20bf 8721 1ebf 5e1a 17bf
000001d0: 0d4d 10bf 5ca4 1ebf 6d59 1ebf 9b69 1bbf
000001e0: 3a36 19bf b5f0 15bf a8d9 21bf d69c 1ebf
000001f0: 8f49 27bf cf92 20bf c885 22bf d315 13bf
00000200: a64f 28bf 0e15 19bf 30de 24bf 689f 12bf
00000210: abb7 12bf 8b25 16bf 339d 1cbf 44e0 21bf
00000220: 0d41 23bf ba4a 20bf f1e1 25bf 7b19 28bf
00000230: 8bd6 20bf 6e55 19bf f93b 25bf 5918 26bf
00000240: 0aff 1dbf 903c 1dbf a517 17bf 6f4c 12bf
00000250: 1eec d4be 5a18 bbbd 8534 c1bd 0231 c4bd
00000260: 1e21 e1bd 15b7 ccbd 8e17 f2bd 1c2b 93bd
00000270: 8c78 9ebd 532f c0bd d8f1 9ebd 66b4 babd
00000280: 0ac8 b7bd a15d adbd 1644 b7bd cf6f a6bd
00000290: d47a efbd a6bc d4bd cd55 d3bd 6330 cdbd
000002a0: fb03 cdbd f7f4 afbd 6251 a2bd 6bb3 73bd
000002b0: 968d 88bd d199 a1bd b9da 87bd c500 83bd
000002c0: 3550 6cbd de1f 8dbd 1dbd 8fbd aba7 95bd
000002d0: 59de 98bd 1aec ccbd 689b babd deba cdbd
000002e0: 662d dbbd ffc7 c2bd 1e5e 9dbd b057 68bd
000002f0: 2aaa 73bd f479 7ebd c4d5 bebd 96cf 85bd
00000300: 4d76 9ebd fc2b b0bd f48c 86bd 0d63 e2bd
00000310: e5e2 d5bd 396a 8dbd 99f4 93bd cb91 8fbd
00000320: fc84 8cbd 6fd6 d6bd d7c6 a9bd 4207 b1bd
00000330: 4be6 99bd ea8c b7bd c9c2 a4bd 7629 c1bd
00000340: dab6 cbbd ab49 e5bd 429f e8bd 1b25 dabd
00000350: 04b2 babd 878a d0bd 43b6 dbbd a85b cfbd
00000360: 494c 84be bb03 efbe 3506 09bf 3fa2 14bf
00000370: 0457 1dbf 8a19 e9be 482f ffbc feb2 31bc
00000380: 4c36 35bc d1c4 aebc b297 65bc 50f6 04bd
00000390: 170e 08bd 7abf 63bc dad1 90bc 512b 0ebd
000003a0: 7f94 0abd 10bb 85bd b21c 82bd 7376 59bd
000003b0: f7a6 3dbd e83c debc 6665 23bd 4a2d 28bd
000003c0: ccc0 cdbc 44fd 2fbd d2c0 44bd ead1 cbbc
000003d0: ce24 fabc 7192 1bbd 3dcc 45bc 3ac1 e0bc
000003e0: 02ac 1dbb f6ae 01bd 0209 17bc 63d9 54bc
000003f0: 398c 30bd 9205 32bc 2147 68bd f676 2cbd

cnn_model.0.bias f4 [10]
0.05341624 0.07147826 0.008322271 0.27286407 0.07838302 0.07055047 0.31879154 -0.0107605625
0.0594615 0.2814012
00000000: fdca 5a3d 3263 923d 225a 083c d7b4 8b3e
00000010: 4787 a03d c47c 903d a538 a33e 124d 30bc
00000020: e78d 733d d113 903e

cnn_model.2.weight f4 [1, 10, 1, 1]
1.1164997 0.9296696 0.21576826 -1.236627 0.87616897 1.0945939 -1.0895054 0.24493647
0.96845245 -1.147419
00000000: 76e9 8e3f d4fe 6d3f 5bf2 5c3e cb49 9ebf
00000010: 9c4c 603f a71b 8c3f ea74 8bbf a0d0 7a3e
00000020: 80ec 773f a0de 92bf
