annotator/static/models/Solution_6237748fff6c04cb670d40d7.pth (torch, 183959 bytes, 3 tensors)

cnn_model.0.weight f4 [10, 1, 37, 123]
0	0xbb5171d8	-0.0031958725
1	0x3b80acf0	0.0039268658
2	0xbb4480a4	-0.0029983902
3	0xbc65e8a0	-0.014032513
4	0xbca36619	-0.019946145
5	0xbca70e49	-0.020392554
6	0xbb8d212f	-0.0043069343
7	0xbc85295c	-0.016255073
8	0x3b3dca4e	0.0028959694
9	0xbc8ba45e	-0.01704615
10	0xbc6b17a5	-0.014348899
11	0x3b45f90d	0.003020826
12	0x3a3e2775	0.00072538044
13	0x3bdd229f	0.006748512
14	0xbc2b3954	-0.01045068
15	0x3bacf6b4	0.0052784327
16	0x3b33e812	0.0027451557
17	0x3bdd61ad	0.0067560286
18	0xbca493e2	-0.020090047
19	0xbc2983c2	-0.010346355
20	0xbca09f84	-0.019607313
21	0xbb3d4e06	-0.0028885617
22	0xbc815125	-0.015785763
23	0x3c02089b	0.007936622
24	0x3b005713	0.001958315
25	0xbae5a46d	-0.0017520316
26	0xbc6672cc	-0.014065456
27	0x3bc3a434	0.0059705023
28	0x3b3a3ac1	0.0028416368
29	0xbbec7ad0	-0.007216789
30	0xbc9bf5dc	-0.019038133
31	0xbca80ada	-0.020512987
32	0xbb9502e0	-0.004547462
33	0xbc4dccae	-0.0125610065
34	0xbac41ca3	-0.0014962148
35	0xbc86b6fd	-0.016444677
36	0xbc7ce427	-0.015435255
37	0xb9184bd3	-0.00014524096
38	0xbbdb9d23	-0.0067020818
39	0xbb201586	-0.0024426891
40	0x3bcd96bf	0.006274074
41	0xbbd82545	-0.0065962397
42	0xbc46a5e4	-0.012124512
43	0x3bbe1562	0.005800889
44	0x3b3a09cf	0.0028387194
45	0x3bfff54b	0.0078112236
46	0xbc4b4480	-0.012406468
47	0xbca3986c	-0.019970141
48	0xba8a0b17	-0.001053187
49	0xbc24cf21	-0.010059149
50	0xbc47df05	-0.012199168
51	0xbc9e1e72	-0.019301627
52	0xbc86f2ec	-0.016473256
53	0xbb27ad0e	-0.0025585326
54	0xbae54d4f	-0.0017494353
55	0xbb4aa1d6	-0.0030919216
56	0xbc5cd86f	-0.013479336
57	0xbad142b8	-0.0015965318
58	0xbc261338	-0.010136418
59	0xbbf303d5	-0.0074162283
60	0x3b899026	0.004198092
61	0xbbc3bf62	-0.0059737423
62	0x3bf9d600	0.0076243877
63	0x3b758d76	0.003746835
64	0x3ba94c3e	0.0051665595
65	0x3aa82769	0.0012829128
66	0x3c0ffe94	0.0087887235
67	0x3a2fe06d	0.0006709162
68	0x3b791a92	0.0038010222
69	0xbc33d0d2	-0.01097508
70	0x3b8813e6	0.0041527627
71	0xbc1d3ceb	-0.0095970435
72	0xbc952528	-0.018206194
73	0xbc4e9421	-0.012608559
74	0xbc8049ff	-0.015660284
75	0x399e52c6	0.0003019778
76	0xb9bfb10b	-0.00036562266
77	0xbc1471b1	-0.009060309
78	0xbc433c99	-0.011916303
79	0xbc9f057a	-0.019411791
80	0xbbcc77de	-0.006239875
81	0xbbc25785	-0.0059308433
82	0xba54c15f	-0.0008115973
83	0xbaf94b53	-0.0019019641
84	0xbbeaae83	-0.0071619167
85	0xbc210ccc	-0.009829711
86	0xbc83a489	-0.016069667
87	0x3bc26914	0.0059329364
88	0x3b68dde8	0.0035532657
89	0xbc87adce	-0.016562369
90	0x38afc3ab	8.381096e-05
91	0xbc3352d6	-0.010945043
92	0x3bd7b600	0.0065829754
93	0x3bbf8652	0.0058448697
94	0x3c001b7e	0.007819055
95	0xbc84bd68	-0.016203597
96	0x3acd6017	0.0015668896
97	0xb978026b	-0.00023652024
98	0xba93335b	-0.0011230515
99	0xbbdb7d93	-0.006698319
100	0x3b9168df	0.0044375504
101	0xb8dae1c7	-0.00010437104
102	0xbc377f10	-0.011199728
103	0x3bc5c20d	0.0060350955
104	0xbbf40975	-0.0074474164
105	0x3a976067	0.0011549116
106	0xbc51a0cd	-0.012794686
107	0x3b184189	0.0023232421
108	0xbbef0a3e	-0.007294922
109	0xbae1ba8c	-0.0017221733
110	0xbc864502	-0.016390327
111	0x3b8fa710	0.004383929
112	0xbc1136b5	-0.008863141
113	0x39e1f5ba	0.00043098425
114	0xbc593cff	-0.0132591715
115	0x3ba4139f	0.005007222
116	0xb9395e11	-0.00017678017
117	0xbc6e7f2c	-0.014556687
118	0xbca58d19	-0.020208882
119	0xbabb1188	-0.0014272192
120	0xbb6ea964	-0.0036416883
121	0x3b761bed	0.0037553266
122	0xbb4714a7	-0.00303773
123	0xbb3bcad1	-0.0028654824
124	0xbca67633	-0.020320034
125	0x3bb66c57	0.0055671143
126	0xbca709a1	-0.020390334
127	0x3be400b0	0.00695809
128	0xbaaedd30	-0.0013341065
129	0xbc50e963	-0.012750956
130	0x3b52fdc2	0.0032194708
131	0xbb5d6733	-0.0033783435
132	0xbbf79921	-0.007556096
133	0xbc69d21b	-0.014271284
134	0xbca7e368	-0.020494178
135	0xbc852d51	-0.01625696
136	0xbc934d3a	-0.01798116
137	0xbc858c3a	-0.016302217
138	0xbca3ed73	-0.020010686
139	0xbc14fd0d	-0.009093535
140	0xbb8fe63f	-0.004391461
141	0x3bd7c225	0.006584423
142	0xbc937301	-0.017999174
143	0xbc540a60	-0.012941927
144	0x3c08c657	0.008348069
145	0xbb002523	-0.0019553385
146	0x3b356300	0.0027677417
147	0xbb0c114b	-0.0021372612
148	0xbc789fc5	-0.015174811
149	0x3bbcade3	0.0057580336
150	0xbc960cf6	-0.018316727
151	0xbc4fdacd	-0.0126864435
152	0xbbdc0ba3	-0.0067152544
153	0xbc971ae6	-0.018445443
154	0x3b3c7033	0.00287534
155	0x3b4fa470	0.0031683706
156	0x3bd4ba7e	0.006491958
157	0x3aa04f19	0.0012230604
158	0x38df22ea	0.00010639972
159	0xba03c9d8	-0.00050273305
160	0xbc8389c6	-0.016056906
161	0xbb021b77	-0.0019852796
162	0x3b31dbd3	0.0027139082
163	0x3b0c55d5	0.0021413465
164	0x3b393dd5	0.0028265615
165	0x3b05ec42	0.002043501
166	0x3ae36650	0.0017349217
167	0xbc24b1bc	-0.010052141
168	0xbc25c7b6	-0.010118416
169	0xbc5910ce	-0.013248635
170	0xbc1d6a15	-0.009607811
171	0x3b04fcb6	0.002029223
172	0xbc7de7a3	-0.015497121
173	0x3b9ca9a9	0.0047809673
174	0x3c0cea25	0.008600746
175	0x3b2a7f49	0.002601581
176	0xbc1744f5	-0.009232749
177	0xbc56de47	-0.0131145185
178	0xbc85822e	-0.016297426
179	0x383aa16b	4.4496188e-05
180	0xbc36fddd	-0.011168924
181	0xbba352d0	-0.0049842373
182	0xb90c311f	-0.0001336974
183	0xbb9587be	-0.004563301
184	0xbc19f66b	-0.0093971295
185	0xbba9fa10	-0.0051872805
186	0xbc41be8c	-0.011825215
187	0xbba952a1	-0.005167321
188	0xbca0bdb9	-0.019621717
189	0x3b93eb73	0.0045141517
190	0xbbfb2710	-0.0076645687
191	0x3c097c09	0.008391389
192	0xbc99c42b	-0.018770298
193	0x3bbd25be	0.0057723215
194	0xbb62d355	-0.0034610827
195	0xbaced40c	-0.0015779748
196	0xbb9576e2	-0.004561291
197	0xbc410e5a	-0.011783207
198	0xbc71d70f	-0.014760747
199	0xbae3a76e	-0.0017368624
200	0xbbf90c0a	-0.007600312
201	0x3ab72dc0	0.0013975427
202	0xbb2b52e7	-0.0026141943
203	0xbc145952	-0.009054499
204	0xbc3645f0	-0.011125073
205	0xbb7718c3	-0.0037703968
206	0xbc744722	-0.0149095375
207	0xbc49e605	-0.012322907
208	0xbbf77c67	-0.0075526717
209	0xbb987a57	-0.004653256
210	0xbc8b81d7	-0.017029686
211	0x3be9cd23	0.00713505
212	0x3b967ebc	0.0045927446
213	0xbaf4fed0	-0.0018691663
214	0xbca7f217	-0.02050118
215	0xbc1a4766	-0.009416437
216	0x3b555f93	0.0032558187
217	0xbb2e1e96	-0.0026568524
218	0xbc7f216a	-0.015571931
219	0xbc466d8b	-0.012111078
220	0x39fb0f00	0.00047885627
221	0xbbc6fbad	-0.0060724826
222	0xbc9281b3	-0.017884111
223	0xbbef82c9	-0.007309292
224	0xbb57b666	-0.0032915114
225	0xbb6e6ba3	-0.0036380074
226	0x3ba169ca	0.004925941
227	0x3b17e8ee	0.0023179608
228	0xbc7cc639	-0.015428119
229	0x3a2e3edb	0.00066469394
230	0x3b618e93	0.0034417256
231	0xbc867873	-0.016414857
232	0xbcaa2488	-0.020769373
233	0xbc912b00	-0.0177207
234	0xbc8b7e13	-0.01702789
235	0xbb3642f8	-0.0027810913
236	0x3bd04fc0	0.006357163
237	0xbba28dd5	-0.0049607554
238	0x3bbf64f0	0.00584089
239	0xbbbf18c7	-0.005831811
240	0x3b4ba33c	0.0031072637
241	0xbbb44b15	-0.0055021145
242	0xbb832769	-0.004002501
243	0x3c093e52	0.008376675
244	0x3aaee9e8	0.0013344856
245	0x3bdc2cf4	0.006719226
246	0xbc79074b	-0.015199493
247	0xbc2224f3	-0.009896505
248	0xbaa645d3	-0.0012685604
249	0xbae9206b	-0.001778615
250	0xbbfeb4b3	-0.007773006
251	0x3bb32562	0.005467103
252	0xbc5d41c7	-0.013504452
253	0xbc9a69bc	-0.018849246
254	0xbb72c704	-0.0037044892
255	0xbc77d9a6	-0.015127575

cnn_model.0.bias f4 [10]
0	0xbc377388	-0.011196978
1	0x3f10ed4a	0.56612074
2	0x3e06ecae	0.13176224
3	0x3e095686	0.13411912
4	0x3dfe7ffa	0.12426753
5	0x3efd7761	0.4950514
6	0x3e0067a6	0.12539539
7	0xbc2dd57e	-0.010609983
8	0x3aaf33bd	0.001336686
9	0x3de86710	0.113477826

cnn_model.2.weight f4 [1, 10, 1, 1]
0	0x3de071ec	0.10959229
1	0xbf647724	-0.89244294
2	0x3f221941	0.63319784
3	0x3f50a2b5	0.8149827
4	0x3f43972a	0.76402533
5	0xbf7bdf28	-0.98387384
6	0x3f1f21b3	0.62160796
7	0x3e8d7c44	0.2763387
8	0x3de8e9b2	0.11372699
9	0x3f5c5093	0.86060447
