annotator/static/models/t_628cc7d826fc6f13431d2e16.pth (torch, 291423 bytes, 3 tensors)

module.cnn_model.0.weight f4 [10, 1, 127, 57]
00000000: 365c 183f 120a f03e 24ce 063f 80af 093f
00000010: 7392 0a3f 48d7 f83e 7d86 043f bf00 f13e
00000020: d420 0f3f ffd4 0d3f a904 0b3f a431 fe3e
00000030: 3f53 ed3e 2141 c43e 0084 073f 67de f83e
00000040: 541d eb3e 3ad6 dc3e 1bbe 0b3f 9f5e cf3e
00000050: acdf e53e caa2 f53e 6f23 e43e d481 8a3e
00000060: a10c 2c3f 00ae 263f c2f8 273f 2ee6 223f
00000070: 503a 243f f809 2b3f fda7 3b3f 8d25 b93e
00000080: 39be ca3e cec8 0a3f da74 b93e 010a e63e
00000090: ae55 043f 985c f23e fd4b 013f 1b4d c43e
000000a0: 4563 ca3e a818 f53e a2c0 e53e 5131 d33e
000000b0: f79d c83e a7b5 cd3e 0cd2 f63e c5f1 be3e
000000c0: debd d33e eb67 e63e b0e3 003f d8e6 033f
000000d0: 36fb 023f 2c4f f23e d905 163f bba0 053f
000000e0: 6a85 153f 4b47 c33e c1df 433e 6d86 493e
000000f0: b84e 3e3e 7f26 463e 7b19 393e edaa 313e
00000100: 5aa5 2a3e b1e6 513e 5bac 433e 74a8 323e
00000110: d233 123e 6e4e 0b3e 0b8d e53d 34df 303e
00000120: 3959 103e 0a40 133e 8df0 173e 8054 293e
00000130: 5ed8 033e 7a37 0a3e 0c16 1f3e 6d67 de3d
00000140: 2bad ec3d a2f0 533e 6e0d 393e 6f8a 4e3e
00000150: 3e0c 3f3e fa5a 4a3e 9dab 4b3e e2e0 843e
00000160: 895f ef3d 6499 003e fe85 2c3e 4c82 e23d
00000170: a719 1c3e 06e9 1b3e 5a24 253e d9be 1d3e
00000180: fc0e e33d 19d7 083e 8aae 0e3e 8291 f73d
00000190: af4b 033e ad80 003e 3493 023e cdf1 0c3e
000001a0: 026b eb3d 6d2a 143e b58b 233e 44c5 223e
000001b0: d2cb 273e a0bc 413e cfdd 2a3e 471e 4b3e
000001c0: 9e01 5e3e 122c e53e e89a c93e 81bd 113e
000001d0: ffe7 c93d 34a8 ad3d b7f8 993d f51c 703d
000001e0: 9b2c 693d f5b6 8d3d 3acf b43d ca75 d63d
000001f0: 7f39 af3d 43b3 9b3d d9b0 6b3d ef2e 493d
00000200: 7a8c a63d 7f69 ac3d 3209 7a3d 6e2d a33d
00000210: 596d 913d b38e 813d 32b7 863d 1dba 953d
00000220: 6eee 7c3d 6b78 ab3d 79d5 f03d 4371 f43d
00000230: 2d92 ca3d dbab f23d 5f83 d33d 5076 063e
00000240: 6c9e f93d a0d9 983d 20c1 953d 7036 8c3d
00000250: c4cb 7a3d 1808 673d 177e 8e3d de18 9c3d
00000260: a852 9b3d ce26 5f3d ce18 673d 88a2 973d
00000270: d79d 743d 3496 963d b4f8 723d 4870 613d
00000280: 4d23 8c3d 0b09 633d 2b79 863d 27ec a53d
00000290: b9e9 aa3d 83e3 943d c5ee a53d 4d0f 943d
000002a0: 3b21 b43d ef04 fd3d f960 d33e f083 cd3e
000002b0: b647 093e bb5c 3c3d bd6c 273d c539 2b3d
000002c0: e856 353d 99a3 323d 3b37 2e3d 67ec 453d
000002d0: 12da 3f3d 7eda 793d ecbc 583d 5a0f 593d
000002e0: 9e45 553d 0ebd 613d 9814 3b3d adaa 5d3d
000002f0: bfe6 733d da67 353d 89d1 713d c363 573d
00000300: ad23 253d 0681 073d 9693 c73d 9f1f ca3d
00000310: 1b83 b53d 0d09 c63d 8d3e d63d 5a40 c23d
00000320: ee46 ba3d 03f8 d23d 7875 553d 521e 223d
00000330: e1f9 223d b6f0 293d 7fab 353d 870c 413d
00000340: b046 383d 3a7b 293d 9ed3 4f3d b4db 513d
00000350: 5e61 3c3d 25d4 513d 7296 393d 566b 0c3d
00000360: 5d69 1a3d 7b63 293d ae36 4a3d 91b4 243d
00000370: 8e28 4c3d 37d9 5f3d a890 4a3d 4a13 323d
00000380: 3ace c73c 3ab6 273d ca26 fd3d ff21 db3e
00000390: f934 cf3e 4fc6 1a3e eaca 8a3d efdc 503d
000003a0: 0fca 4b3d ad49 163d b0af fd3c 3b95 f33c
000003b0: 653c 013d 3dfa 5a3d 6fd7 663d c1b2 5d3d
000003c0: a00a 373d 8772 273d 7b75 6d3d 71a7 7f3d
000003d0: 8e91 4b3d af72 593d ea17 3c3d 253e 453d
000003e0: 6bfa 583d b863 113d bdb1 e03c cfe9 bf3d
000003f0: 415b c93d 6471 aa3d 4712 a93d 1084 a63d
0.595157 0.46882683 0.52658296 0.53783417 0.54129714 0.48601747 0.5176771 0.47070882
0.55909467 0.5540313 0.54303986 0.49647248 0.46352574 0.3833094 0.5293579 0.4860718
0.45920813 0.43132192 0.5458695 0.40501878 0.4489721 0.4797576 0.44558284 0.27052176
0.6720677 0.6510925 0.6561395 0.63632476 0.6415148 0.66812086 0.73303205 0.3616146
0.39598253 0.54212654 0.36221963 0.44929507 0.51693237 0.47336268 0.50506574 0.38340077
0.39528862 0.47870374 0.4487353 0.41248563 0.39183018 0.40177652 0.48207128 0.3729383
0.41355795 0.45001158 0.50347424 0.51524115 0.5116457 0.47326028 0.5860267 0.5219838
0.584067 0.3814033 0.19128324 0.19680186 0.18584716 0.19350623 0.18076126 0.1735036
0.16664639 0.20498158 0.19108717 0.17447072 0.1427758 0.13604137 0.112085424 0.17272645
0.14096536 0.14379898 0.14837857 0.1653614 0.12875506 0.13497725 0.15535754 0.10859571
0.11556467 0.20697263 0.1807153 0.20169996 0.18657014 0.19761267 0.19889684 0.25952822
0.11688144 0.12558514 0.16847989 0.110600084 0.1524416 0.1522561 0.16127148 0.15404834
0.110868424 0.13363303 0.13933769 0.120883 0.1282184 0.12549086 0.12751466 0.13764115
0.114950195 0.14469309 0.15971263 0.15895563 0.16386345 0.18919611 0.16686176 0.19835769
0.21680304 0.44760185 0.39375997 0.14232446 0.09858703 0.08479348 0.07518142 0.058621366
0.056927305 0.06919662 0.08828588 0.10471685 0.085558884 0.07602551 0.057541702 0.049117025
0.081322625 0.08418559 0.061043926 0.079676494 0.071009345 0.06326046 0.065779105 0.07310889
0.06175082 0.08372577 0.11759467 0.119356655 0.09891162 0.11849185 0.103277914 0.1313107
0.1218842 0.07463384 0.07312226 0.06846321 0.061229482 0.056404203 0.069576435 0.076219305
0.07584125 0.054480366 0.05642014 0.07404047 0.05972084 0.07352868 0.059319213 0.05503872
0.068426706 0.055428546 0.0656608 0.08101683 0.0834536 0.07269957 0.08102182 0.07229481
0.08795401 0.12354457 0.41284922 0.40139723 0.13406262 0.045986872 0.040875185 0.04180314
0.044272333 0.04361305 0.04253314 0.048321154 0.046838827 0.060999386 0.052914545 0.052993156
0.052068345 0.055111937 0.045673937 0.054117847 0.05954623 0.044288494 0.05903772 0.052585375
0.040317226 0.03308203 0.09744947 0.098693125 0.08862897 0.09669695 0.10461149 0.0948493
0.0909556 0.10301211 0.05211398 0.039579697 0.039789084 0.041489325 0.044353005 0.047131088
0.044989288 0.041377284 0.050738923 0.051234916 0.045991294 0.051227707 0.04530949 0.03428205
0.03769814 0.041354638 0.049368553 0.040211264 0.049843363 0.05465051 0.04945436 0.043475427
0.024390329 0.04094527 0.12360914 0.42799374 0.40470102 0.15114711 0.06776984 0.05099195
0.049753245 0.036691356 0.030967563 0.029734245 0.031551737 0.053461302 0.056357797 0.05412555
0.044687867 0.040880706 0.057973366 0.062415544 0.04969936 0.053087886 0.045921244 0.04815497
0.052973192 0.03549549 0.027428502 0.09370767 0.098318584 0.08322409 0.08255439 0.08130658

module.cnn_model.0.bias f4 [10]
00000000: 1b3b 863e fc83 e93e 416a adbe fe37 4abe
00000010: 2883 b33e da5c 54be 4c40 7cbe a2ef 89be
00000020: 8cae b73e 8c7f 61bc
0.2621697 0.4560851 -0.33870128 -0.19747922 0.35061002 -0.20738545 -0.24633902 -0.26940638
0.35875356 -0.01376332

module.cnn_model.2.weight f4 [1, 10, 1, 1]
00000000: c2bb 95bf 7765 64bf 85c9 573f 3fea 7c3f
00000010: cf18 7dbf 2915 7b3f 5554 683f 5bf0 633f
00000020: 85a0 77bf 6bce 493e
-1.1697924 -0.89217323 0.8429187 0.9879493 -0.9886598 0.9807916 0.9075368 0.8903863
-0.9672931 0.19707648
