annotator/static/models/the_62389b14c3f2c6a63cc03eeb.pth (torch, 37591 bytes, 3 tensors)

cnn_model.0.weight f4 [10, 1, 27, 33]
000000 32 ec a3 bf 11 01 a9 bf 08 0f aa bf 15 5e a4 bf
       -1.2806456 -1.320345 -1.3285837 -1.2841212
000010 31 1f ab bf 88 5e aa bf 01 fb a7 bf b3 7a aa bf
       -1.3368894 -1.3310099 -1.3123475 -1.3318695
000020 9e c5 a4 bf 00 b3 a5 bf 07 34 a3 bf 84 8d a6 bf
       -1.2872808 -1.2945251 -1.2750252 -1.3011937
000030 7b 24 a6 bf 94 71 a7 bf 46 4b a2 bf a8 94 a8 bf
       -1.2979883 -1.3081536 -1.2679222 -1.3170366
000040 f7 16 a1 bf 4b d0 a7 bf 98 ab a7 bf ad 10 a3 bf
       -1.2585133 -1.3110441 -1.3099241 -1.2739464
000050 bf 61 a6 bf ef 65 a6 bf f3 d6 aa bf 6b 1f a8 bf
       -1.299858 -1.2999858 -1.3346847 -1.3134588
000060 94 fe a1 bf e0 ce a5 bf 57 cd a4 bf 27 d8 a5 bf
       -1.2655816 -1.2953758 -1.2875165 -1.295659
000070 e7 b7 a3 bf 35 c3 a5 bf 02 ac 9f bf 6f 19 a0 bf
       -1.2790498 -1.2950197 -1.2474368 -1.2507762
000080 22 2b a1 bf 3a bd 94 bf bf e1 8f bf fc 09 97 bf
       -1.2591288 -1.1620247 -1.1240767 -1.1799922
000090 08 69 8e bf bc a5 99 bf 76 f4 8f bf 67 fc 98 bf
       -1.1125803 -1.2003703 -1.1246479 -1.1952027
0000a0 7e ed 91 bf 60 2f 7e bf db 58 c3 bf 66 9d 83 bf
       -1.1400602 -0.9929104 -1.5261492 -1.0282409
0000b0 f9 38 98 bf 60 17 99 bf 8d e7 99 bf 8b 8c 94 bf
       -1.1892387 -1.1960258 -1.2023789 -1.160539
0000c0 84 fc 95 bf 33 15 97 bf e8 1c 9b bf 7a 40 94 bf
       -1.1717687 -1.1803344 -1.2118196 -1.1582177
0000d0 bb 4c 8f bf 0f 4c 90 bf 50 28 8e bf 2c d0 93 bf
       -1.1195291 -1.1273211 -1.1106052 -1.1547904
0000e0 9a 4d 92 bf ba 83 96 bf 4f 87 96 bf 25 31 91 bf
       -1.1429932 -1.175895 -1.1760043 -1.1343123
0000f0 c0 0e 8c bf 45 e9 90 bf 98 d5 8f bf b4 aa 90 bf
       -1.0942001 -1.1321188 -1.1237059 -1.1302094
000100 e5 a9 89 bf ac fe 8f bf 46 e4 64 bf e8 40 c7 be
       -1.0754973 -1.1249595 -0.8941082 -0.38916707
000110 19 5a b5 be 46 b5 a1 be d3 6c af be b3 b6 c0 be
       -0.35420302 -0.31583613 -0.34262714 -0.37639388
000120 3e ca cd be 19 e0 c7 be ac 0c 8c bf 25 7b 85 3f
       -0.4019336 -0.3903816 -1.0941367 1.0428206
000130 c2 43 b8 bf 61 8a a5 be 55 6f c9 be 9f 84 c3 be
       -1.4395678 -0.32332137 -0.39342752 -0.3818712
000140 37 e1 b7 be 3a e1 f1 be a3 32 e4 be 52 52 c6 be
       -0.35914013 -0.47242147 -0.44569883 -0.3873468
000150 64 d5 ef be 04 2e ff be 76 d5 03 bf 3f 4e 1b bf
       -0.46842492 -0.49839795 -0.5149759 -0.6066627
000160 42 42 14 bf 76 98 28 bf 10 c7 1c bf be 18 24 bf
       -0.579136 -0.65857637 -0.61241245 -0.64100254
000170 fe e6 08 bf 6e 7c 18 bf 9d 7a 1d bf 6a 6d 12 bf
       -0.53477466 -0.59564865 -0.6151522 -0.571982
000180 d7 7f 24 bf 3e ed 1f bf 37 31 72 bf fc 94 69 bf
       -0.6425757 -0.6247138 -0.94606346 -0.9124296
000190 c5 1c c0 be 7e 9a be be 19 14 50 be 82 23 41 be
       -0.3752195 -0.37227243 -0.20320167 -0.18861201
0001a0 09 f9 5a be e0 fa 83 be 4b 9a 3f bf 7f 42 86 bf
       -0.21384062 -0.2577734 -0.7484481 -1.0489043
0001b0 a0 0e 68 3f 20 f4 85 3f c1 e1 ab bf c6 92 b0 bf
       0.90647316 1.0465126 -1.342827 -1.3794792
0001c0 ed fb db be e5 82 50 be 8c 5e 72 be aa 03 81 be
       -0.42965642 -0.20362432 -0.2366888 -0.25198108
0001d0 b7 12 37 be d9 0a be be e9 eb c8 be 25 7b db be
       -0.17878233 -0.3711765 -0.39242485 -0.4286739
0001e0 29 c5 f9 be 05 4b fc be 90 19 20 bf 5b 73 0d bf
       -0.48783234 -0.49275985 -0.62539005 -0.55254143
0001f0 4c 01 1b bf 62 ad 09 bf 1e fe 02 bf b2 a1 1b bf
       -0.60548854 -0.53780186 -0.51169 -0.607936
000200 58 f4 1e bf 46 47 24 bf 47 4d 23 bf b7 5d 6a bf
       -0.6209159 -0.64171255 -0.6378979 -0.9154925
000210 9f bc 60 bf 89 0d 95 bf 2b 0b 8c bf 2d a7 ad be
       -0.8778781 -1.1644756 -1.0940908 -0.33916607
000220 0e 8e 55 be 70 e6 9f be 3a 5c b6 be 7a 26 89 bf
       -0.20854971 -0.31230497 -0.35617238 -1.0714867
000230 e2 39 8e bf 12 3d 5b 3f 8e 2b 24 3f eb 2d 86 3f
       -1.1111414 0.8564006 0.6412896 1.0482763
000240 fc b6 8e 3f 86 0f b0 bf df 51 e3 be 0e ed 72 be
       1.1149592 -1.3754737 -0.443984 -0.23723242
000250 c6 c9 83 be 7b bb 73 be 96 66 e5 be 32 8d e8 be
       -0.25739878 -0.23801987 -0.4480483 -0.45420223
000260 fe 00 fe be 39 15 0b bf bb 14 f0 be 32 8e 1d bf
       -0.49610132 -0.5432926 -0.46890816 -0.615451
000270 d6 09 1d bf 64 4f 30 bf a4 fd 1c bf e9 ad 17 bf
       -0.61343133 -0.6887114 -0.61324525 -0.5924974
000280 22 a5 23 bf 30 d3 1e bf 24 ba 25 bf e2 16 30 bf
       -0.6392385 -0.62040997 -0.64737153 -0.68784916
000290 1e 50 76 bf a3 8b 61 bf a9 7a 8f bf b8 57 6a bf
       -0.96216 -0.88103694 -1.1209308 -0.915401
0002a0 43 ee b6 bf 89 95 a9 be 76 49 68 bf ee 90 3f bf
       -1.4291462 -0.331219 -0.9073709 -0.7483052
0002b0 10 e4 7d bf d9 a3 86 bf 81 fc 23 3f 60 a8 08 be
       -0.9917612 -1.0518752 0.64057165 -0.1334548
0002c0 90 cd 53 3f 33 1a 68 3f 8a 99 8d 3f 79 bf 9e bf
       0.8273554 0.90664977 1.1062481 -1.2402183
0002d0 bd 99 d2 be dc de 83 be ab db 88 be eb 6d ec be
       -0.41132918 -0.25755966 -0.26730093 -0.4617761
0002e0 06 6c ee be b0 29 07 bf 30 77 07 bf a5 57 21 bf
       -0.4656679 -0.52797985 -0.5291624 -0.6302436
0002f0 9f ec 3a bf ab 54 20 bf 81 f7 38 bf d0 81 22 bf
       -0.73017305 -0.62629193 -0.7225266 -0.6347933
000300 2c 4a 23 bf 1c 3b 1f bf 9f 39 1f bf 0c 3e 35 bf
       -0.6378505 -0.6219957 -0.621973 -0.707978
000310 29 18 2c bf 4d 62 6f bf 4b 9d 46 bf b6 8c 0e bf
       -0.67224365 -0.9350937 -0.7758376 -0.5568346
000320 94 c5 b4 bf 61 17 84 3f fb d8 84 bf 70 12 4d bf
       -1.4122796 1.0319635 -1.0378717 -0.8010626
000330 52 ce 2a bf f7 82 e4 be e4 b9 82 bf 33 0b 25 3f
       -0.6672107 -0.44631168 -1.0212979 0.64470214
000340 24 21 f2 be dc d6 b4 bf da 5f 2b 3f 45 02 83 3f
       -0.4729091 -1.412807 0.6694313 1.0235068
000350 07 55 95 bf fc fa cd be 9f f3 9e be 8b de 5e be
       -1.1666573 -0.40230548 -0.31045243 -0.21764581
000360 6d b0 d9 be 08 b1 ec be 16 04 f8 be b4 f6 e0 be
       -0.42517415 -0.46228814 -0.48440617 -0.4393822
000370 8d 38 12 bf 46 92 32 bf 2d 57 2d bf ff 58 34 bf
       -0.5711754 -0.69754446 -0.67711145 -0.704483
000380 d0 be 13 bf 03 32 1a bf 26 fd 2c bf 0d b2 28 bf
       -0.5771303 -0.6023256 -0.67573774 -0.65896684
000390 a3 9e 2a bf b7 58 21 bf da cf 6c bf 6a e8 51 bf
       -0.6664831 -0.63025993 -0.92504656 -0.8199526
0003a0 c4 8b 89 bf 08 43 7e 3f bb de 69 3f 1b a4 a6 bf
       -1.0745778 0.9932103 0.91355485 -1.3018831
0003b0 03 ab 3b bf 9c 0a 34 bf b6 e8 a2 bf 8e 08 81 bf
       -0.7330782 -0.7032869 -1.2727268 -1.0080736
0003c0 3c 8d e5 3e 84 3a 4b 3f d6 a4 07 be d1 27 99 3e
       0.44834316 0.7938616 -0.13246474 0.2991319
0003d0 69 1f 4b 3f df 7f 98 bf e4 fe cc be b3 e1 69 be
       0.79344803 -1.1914023 -0.40038216 -0.22840004
0003e0 a8 10 85 be ae ac d2 be b2 27 d1 be 53 bc 16 bf
       -0.2598927 -0.4114737 -0.40850598 -0.5888111
0003f0 e0 05 0f bf 2e d4 fc be 78 68 25 bf 4e 5d 1d bf
       -0.5586834 -0.4938063 -0.6461253 -0.61470497

cnn_model.0.bias f4 [10]
000000 49 65 16 3f a0 b7 5c 3c a9 fb 15 3f 1e d6 fd 3e
       0.587483 0.013471514 0.5858713 0.4957742
000010 28 78 14 3f 74 00 0b 3f cb 78 a5 bc 9e ac b1 3e
       0.57995844 0.54297566 -0.0201992 0.3470201
000020 2e 9b 0d 3f 48 cd 47 bd
       0.5531491 -0.048779756

cnn_model.2.weight f4 [1, 10, 1, 1]
000000 aa f0 b9 3f a0 61 51 3e 5e e3 d6 bf 20 eb de bf
       1.452657 0.20447397 -1.6788137 -1.7415504
000010 8b 92 b3 3f 61 97 bb 3f df 88 cb 3d ff f4 ac 3f
       1.4029096 1.4655572 0.099382155 1.3512267
000020 d6 51 ce bf 49 84 67 3e
       -1.6118724 0.22609057
