annotator/static/models/too_628ccdab6d6a04df59edba5e.pth (torch, 121567 bytes, 3 tensors)

module.cnn_model.0.weight f4 [10, 1, 41, 73]
00000000: f6b8 2e3f 6b63 313f bc38 383f 3085 3b3f
00000010: ae08 3b3f 6771 313f 3863 363f 6970 3e3f
00000020: 26ae 3d3f 7d40 363f 533f 363f ab4b 343f
00000030: d542 373f 7cbe 373f cf4f 353f b930 373f
00000040: 2c99 3a3f 18bb 383f 6b05 343f b1e6 3a3f
00000050: 21d3 383f 0a20 353f 9d64 383f e85d 3a3f
00000060: fbe2 343f ef57 3b3f fda9 333f fd51 3f3f
00000070: cf2a 343f e049 383f 04c0 383f 877c 353f
00000080: dc8e 383f 248f 343f 878b 363f f7ab 333f
00000090: 22e4 353f 9458 383f f4de 393f 0c2a 343f
000000a0: 9a59 383f 5521 3e3f be21 2e3f 466a 393f
000000b0: db11 343f 4bfc 303f 1dfa 333f 675b 2d3f
000000c0: 9e6e 343f d6ec 353f 1680 353f 5c9a 323f
000000d0: 0072 283f c580 2e3f 7e5d 343f f64e 3c3f
000000e0: 3455 303f e54a 343f b80a 383f eb7e 313f
000000f0: 2663 363f 4d1c 303f 5647 2d3f 2b59 323f
00000100: a383 3c3f 6b8b 363f 9da6 393f 0804 313f
00000110: 76db 293f 5555 2f3f 9437 3c3f 367a 2d3f
00000120: f868 4f3e 8c44 013f e42d f33e a5ef db3e
00000130: 5a73 0f3f 2354 013f a654 093f 8fb5 e43e
00000140: cf3c ec3e 65ea f13e 9f81 fd3e 11c3 033f
00000150: eff6 e93e 4424 ce3e ba41 ff3e bcc4 cc3e
00000160: 5bdc f83e 5dd9 e33e a1d3 f73e ead0 cb3e
00000170: 47b7 f83e 0cfd 013f fae0 e93e 2722 fd3e
00000180: 954f 033f a3d8 013f 3ec2 ef3e 348a e83e
00000190: ed20 0c3f e953 ec3e e679 de3e 9f2f 043f
000001a0: 13e9 013f d451 d93e 0272 f13e 7d91 ce3e
000001b0: e463 df3e 08d7 f83e f1b4 003f fa6c e63e
000001c0: 6163 0f3f a052 f03e d676 d53e 8f32 123f
000001d0: 98bf e23e 585b 023f db7a 053f 3b64 3c3e
000001e0: 54d8 323e ab11 513e 88bd 453e b7a7 653e
000001f0: 3db2 343e e4ae 333e 8ea2 523e 3b40 493e
00000200: 8e24 413e 6824 3d3e ef39 343e 5b14 2e3e
00000210: 7901 533e ff97 513e 093f 3e3e e43e 313e
00000220: a917 2a3e f9b8 6d3e 57c7 423e aa75 623e
00000230: 093d 323e a243 303e f1e4 653e e289 5e3e
00000240: b400 923e cfa2 b83c e02b f03e 97b8 ed3e
00000250: b838 d03e df8b e83e 77f6 d43e 36c6 dd3e
00000260: c5d2 d13e 2ed8 043f 17a7 c73e bd42 c73e
00000270: 6088 c13e 3d43 c63e 567b c23e 6f64 0b3f
00000280: aaab f33e 86d2 fd3e 9dee ed3e c7ce e93e
00000290: 0d50 ee3e 4b85 be3e 63de b23e e7c6 ca3e
000002a0: f2c0 103f 8866 ed3e 7498 f03e 3104 0f3f
000002b0: e442 dd3e a9c4 f83e 0503 fd3e f774 fd3e
000002c0: d2d6 023f cfb4 d53e 9ce5 033f 43dd dd3e
000002d0: ba4e 013f ed4d 073f 6df0 de3e d602 093f
000002e0: 0c01 c33e a08c f73e 70c1 ee3e 715f ee3e
000002f0: 1be9 df3e 5f93 ed3e 7aa9 d13e f759 053f
00000300: 0a1e 003d 41bc 863d 4489 513d 4719 113e
00000310: 0e62 053e 0462 7b3d ea11 723d 0c69 ef3d
00000320: 2998 223e 12a0 cf3d 80f1 013e f661 933d
00000330: 56f2 5a3e 715d 4b3d 760b 1b3d d899 013d
00000340: a075 1b3d 736b 803d c310 b13d 2872 083d
00000350: dba7 eb3c 0d5c 043e b272 333d 8795 8d3d
00000360: 55ba 373e 7e72 903e 06dd 8c3d b5af e93e
00000370: a883 f63e 9366 f93e 69bc 023f bf1c 083f
00000380: 0555 c83e 43bb f23e 7d00 c93e 6b64 d23e
00000390: 12c4 e73e 9263 c33e 5ded 853e dbcb 5a3f
000003a0: bed0 bb3e f65c ff3e 18df e73e f79c f13e
000003b0: 36c7 e83e 2874 d93e 008e e23e f3f4 cb3e
000003c0: b5b3 023f 7573 e73e 616f 0c3f a329 ea3e
000003d0: a113 043f 7451 c13e 3a1f d33e f82d d93e
000003e0: 9581 de3e 1ef5 043f 236a f83e 470f ce3e
000003f0: 1659 cb3e 3630 f33e c9fc 003f decd c73e
0.6825098 0.69292325 0.7196157 0.73250103 0.7306012 0.69313663 0.71245146 0.74390274
0.74093854 0.7119215 0.71190375 0.7042796 0.7158635 0.7177503 0.70824903 0.7155872
0.7288997 0.7216048 0.7032077 0.7300826 0.7219716 0.7075201 0.72028524 0.7279954
0.70658845 0.7318105 0.70181257 0.7473448 0.7037782 0.71987724 0.7216799 0.7089314
0.72092986 0.70530915 0.7130665 0.7018427 0.7105123 0.7201016 0.72605824 0.7037666
0.7201172 0.7426961 0.68020236 0.72427785 0.70339745 0.6913497 0.7030352 0.67717594
0.7048129 0.7106451 0.7089857 0.69766784 0.6579895 0.68165237 0.7045516 0.73557985
0.6888001 0.7042678 0.71891356 0.69334286 0.7124504 0.68793184 0.67686975 0.6966731
0.7363836 0.71306485 0.72519857 0.69146776 0.66350496 0.6848958 0.73522305 0.67764604
0.20254886 0.5049522 0.4749595 0.42956272 0.5603539 0.5051901 0.5364479 0.44669768
0.46140143 0.4724914 0.49512956 0.5146952 0.45696208 0.40262043 0.49854833 0.39993846
0.48605618 0.44501773 0.48403648 0.39807826 0.4857733 0.50776744 0.45679456 0.4944012
0.5129331 0.50721186 0.46827883 0.4541794 0.5473774 0.46157768 0.43452376 0.51635164
0.5074627 0.42445242 0.47157294 0.40345374 0.43630898 0.48601556 0.50276095 0.45005018
0.56011015 0.46938038 0.41692227 0.57108396 0.442868 0.5092063 0.5214059 0.1839761
0.17465335 0.20416896 0.19310582 0.2242726 0.17646118 0.17547184 0.20569822 0.19653408
0.18861601 0.18470919 0.17600225 0.16999952 0.2060603 0.20468138 0.18578734 0.17309147
0.16610588 0.23215093 0.19021355 0.22115198 0.17406096 0.172133 0.22450615 0.21732286
0.2851616 0.02253857 0.46908474 0.46429893 0.40668273 0.45419213 0.41594288 0.43315285
0.40981117 0.51892364 0.38994667 0.38918105 0.37799358 0.38723174 0.37984723 0.54450125
0.47591907 0.4957468 0.4647111 0.4566557 0.4654545 0.3721107 0.34935293 0.39604875
0.5654441 0.46367288 0.46991313 0.5586577 0.43215096 0.4858754 0.49416366 0.495033
0.5110904 0.41739509 0.5152223 0.43332872 0.5051075 0.5285328 0.43542805 0.5351995
0.38086736 0.48349476 0.46631956 0.4655719 0.43732533 0.46401498 0.40949613 0.520904
0.031278647 0.06578875 0.051156297 0.14169799 0.13025686 0.06137277 0.059099115 0.11689958
0.15878357 0.10137953 0.12689781 0.07196419 0.21381506 0.04964966 0.037852727 0.031640857
0.037953973 0.06270494 0.08645775 0.033311993 0.028766563 0.1292574 0.043810554 0.06913286
0.17942174 0.2821235 0.068780944 0.45641866 0.4814732 0.4871107 0.5106874 0.53168863
0.39127365 0.47408494 0.39258185 0.41092238 0.45266777 0.38161904 0.26157656 0.8546731
0.36682695 0.4987561 0.45287395 0.47190067 0.45464486 0.42471433 0.44248962 0.3983532
0.5105546 0.45205274 0.5485745 0.4573489 0.5159245 0.37757456 0.4123476 0.42417884
0.43458238 0.5193652 0.48518476 0.4024603 0.39716405 0.4749772 0.5038572 0.39024252

module.cnn_model.0.bias f4 [10]
00000000: d2be 003e 461f 213e acc6 003e 6969 b93e
00000010: 38ad 0a3e 9756 283e ae56 c93e 09f9 003e
00000020: 57d7 053f 679f f13e
0.12572792 0.15734586 0.12575787 0.36213234 0.1354264 0.16439281 0.39323944 0.12595
0.5228171 0.47191927

module.cnn_model.2.weight f4 [1, 10, 1, 1]
00000000: acd4 5cbf 5e27 60bf 8f43 59bf aa51 503f
00000010: 987d 87bf a5ef 50bf 623e 4c3f c24a 8dbf
00000020: 24ad 1b3f f095 283f
-0.8626201 -0.8756007 -0.8486871 0.8137461 -1.0585203 -0.8161567 0.7978269 -1.1038439
0.60811067 0.65853786
