annotator/static/models/too_628e0a8b660274a0ff57467e.pth (torch, 160607 bytes, 3 tensors)

module.cnn_model.0.weight f4 [10, 1, 49, 81]
0.648376 0.6411101 0.6599964 0.6116165 0.66601104 0.66371465 0.6168372 0.6378879
0.6551465 0.6716827 0.653145 0.61701304 0.6775539 0.607239 0.65619016 0.64391816
0.65550554 0.65811586 0.6547737 0.6437222 0.6481047 0.6571146 0.6702502 0.67121446
0.6618662 0.66177034 0.637985 0.64960957 0.6584556 0.64701915 0.64129466 0.63400453
0.6636744 0.6471019 0.6487821 0.61796176 0.632087 0.6660997 0.59754527 0.6133358
0.6700482 0.6266843 0.63990104 0.64103657 0.6450833 0.6368091 0.6745848 0.63980544
0.63200057 0.6443448 0.64310855 0.63200736 0.60394686 0.63099074 0.6026573 0.6462032
0.5936639 0.626545 0.60290533 0.5938139 0.6478136 0.67911315 0.65869915 0.65194803
0.6244452 0.6288207 0.59825253 0.6060554 0.63414717 0.6196982 0.635589 0.60906535
0.63983583 0.6128606 0.64345956 0.6643538 0.6479342 0.6600717 0.65973014 0.64636105
0.09935982 0.38402766 0.34309462 0.2505252 0.35541818 0.33777508 0.21746804 0.3009717
0.33348322 0.23779258 0.25691956 0.288134 0.28070512 0.27558154 0.36539257 0.3126818
0.2834553 0.34007066 0.2947764 0.25884163 0.27407914 0.30797404 0.32511324 0.3240035
0.30417573 0.2746605 0.35923 0.3406683 0.29584914 0.3482054 0.39859974 0.34575382
0.27383634 0.34559634 0.37272856 0.34949207 0.37906304 0.2632973 0.26839834 0.3482866
0.32738516 0.2937787 0.38920847 0.2281919 0.25799438 0.34553245 0.34322292 0.28898785
0.33481452 0.34940195 0.37225524 0.26208258 0.24096628 0.29410467 0.10172786 0.06830038
0.09859279 0.10193535 0.0980334 0.1048984 0.08367792 0.09601351 0.0926271 0.095748454
0.09594915 0.08594374 0.07010431 0.08097082 0.08646223 0.11318891 0.083315164 0.08617621
0.09703617 0.08999013 0.09381219 0.07987273 0.09072485 0.09719903 0.09118649 0.11894151
0.36168268 0.044344906 0.41304773 0.22620259 0.20166813 0.37260258 0.34616196 0.30385992
0.32265827 0.29145133 0.30863944 0.17970088 0.2874543 0.35823175 0.2626783 0.22222726
0.24851853 0.29917654 0.26077098 0.23312885 0.27194494 0.25622597 0.39415306 0.22543265
0.2565253 0.3247187 0.29497343 0.29608768 0.29138604 0.23335661 0.23614225 0.20179316
0.21029069 0.3030644 0.33193508 0.15929715 0.33327195 0.31932533 0.17777495 0.22308175
0.27944615 0.2810732 0.23227967 0.3544754 0.3250007 0.36557668 0.27638206 0.23744711
0.32662374 0.27671233 0.3237588 0.30208597 0.23507442 0.26661423 0.3648256 0.04265914
0.05654806 0.04438589 0.038246714 0.026562972 0.04726819 0.049568 0.047135957 0.023382965
0.022376634 0.04701454 0.05343155 0.045150347 0.06176542 0.07118822 0.057353105 0.06282754
0.013345952 0.031725727 0.04082327 0.040593922 0.03983076 0.031169714 0.022452855 0.049699094
0.04098589 0.33790877 0.026441658 0.41114488 0.28710714 0.31903815 0.23255113 0.30770543
0.3115949 0.2835548 0.31872302 0.2996291 0.2707454 0.1513951 0.31102633 0.3334873
00000000: f8fb 253f cb1f 243f 86f5 283f e692 1c3f
00000010: b37f 2a3f 34e9 293f 0be9 1d3f 9f4c 233f
00000020: aeb7 273f 66f3 2b3f 8334 273f 91f4 1d3f
00000030: 2c74 2d3f 0474 1b3f 14fc 273f d2d7 243f
00000040: 36cf 273f 487a 283f 409f 273f faca 243f
00000050: 31ea 253f aa38 283f 8495 2b3f b6d4 2b3f
00000060: 1070 293f c869 293f fc52 233f d04c 263f
00000070: 8c90 283f 0ca3 253f e32b 243f 1f4e 223f
00000080: 91e6 293f 78a8 253f 9516 263f be32 1e3f
00000090: 74d0 213f 8385 2a3f baf8 183f 9303 1d3f
000000a0: 4788 2b3f 626e 203f 8ed0 233f f91a 243f
000000b0: 2e24 253f ec05 233f 97b1 2c3f 4aca 233f
000000c0: caca 213f c8f3 243f c3a2 243f 3ccb 213f
000000d0: 439c 1a3f 9c88 213f c047 1a3f 936d 253f
000000e0: 5bfa 173f 4165 203f 0158 1a3f 3004 183f
000000f0: 1dd7 253f 5cda 2d3f 82a0 283f 11e6 263f
00000100: a4db 1f3f 65fa 203f 1427 193f 7226 1b3f
00000110: 7857 223f 8ba4 1e3f f6b5 223f b5eb 1b3f
00000120: 48cc 233f 6fe4 1c3f c4b9 243f 1713 2a3f
00000130: 04df 253f 75fa 283f 13e4 283f eb77 253f
00000140: 297d cb3d 469f c43e 19aa af3e d744 803e
00000150: 5ff9 b53e dbf0 ac3e f1af 5e3e f618 9a3e
00000160: 50be aa3e e67f 733e f68a 833e 4d86 933e
00000170: 95b8 8f3e 0619 8d3e bc14 bb3e d417 a03e
00000180: 0e21 913e be1d ae3e efec 963e e486 843e
00000190: 1a54 8c3e c6ae 9d3e 3e75 a63e c9e3 a53e
000001a0: ecbc 9b3e 4da0 8c3e ffec b73e 136c ae3e
000001b0: 8a79 973e fa47 b23e 4415 cc3e a506 b13e
000001c0: 4734 8c3e 01f2 b03e 47d6 be3e a0f0 b23e
000001d0: 8d14 c23e e7ce 863e 826b 893e 9f52 b23e
000001e0: 079f a73e 296a 963e 5546 c73e 23ab 693e
000001f0: d717 843e a1e9 b03e eaba af3e 37f6 933e
00000200: cf6c ab3e d0e4 b23e 3d98 be3e b02f 863e
00000210: ddbf 763e e394 963e b256 d03d 12e1 8b3d
00000220: 04eb c93d 7bc3 d03d bcc5 c83d f9d4 d63d
00000230: 545f ab3d bba2 c43d 47b3 bd3d c417 c43d
00000240: fd80 c43d 4603 b03d d992 8f3d 07d4 a53d
00000250: 1c13 b13d 96cf e73d 24a1 aa3d 277d b03d
00000260: e6ba c63d bf4c b83d 9b20 c03d 5094 a33d
00000270: f3cd b93d 4910 c73d fcbf ba3d 9b97 f33d
00000280: 792e b93e 01a3 353d fe7a d33e a7a1 673e
00000290: 1782 4e3e c4c5 be3e 243c b13e 8793 9b3e
000002a0: 7733 a53e 1c39 953e fd05 9e3e 8203 383e
000002b0: 362d 933e 276a b73e c57d 863e 8b8f 633e
000002c0: a47b 7e3e ab2d 993e c683 853e 54b9 6e3e
000002d0: 5e3c 8b3e 0d30 833e 6ece c93e d1d7 663e
000002e0: 4957 833e 8841 a63e c206 973e ce98 973e
000002f0: 8d30 953e 09f5 6e3e 46cf 713e dea2 4e3e
00000300: 7156 573e 422b 9b3e 65f3 a93e cb1e 233e
00000310: 9fa2 aa3e 9c7e a33e a30a 363e 8b6f 643e
00000320: 9113 8f3e d4e8 8f3e b9da 6d3e cd7d b53e
00000330: 7e66 a63e de2c bb3e f381 8d3e 5625 733e
00000340: 3a3b a73e 3dad 8d3e b7c3 a53e 03ab 9a3e
00000350: 59b7 703e a981 883e 6cca ba3e 5abb 2e3d
00000360: f09e 673d fbcd 353d 96a8 1c3d 979a d93c
00000370: 4a9c 413d d107 4b3d a211 413d a28d bf3c
00000380: 344f b73c 5192 403d 0adb 5a3d 92ef 383d
00000390: bdfd 7c3d 21cb 913d 17eb 6a3d baab 803d
000003a0: fba8 5a3c d6f2 013d 4d36 273d d045 263d
000003b0: 9425 233d a157 ff3c 0def b73c 4791 4b3d
000003c0: d2e0 273d 6102 ad3e 2d9c d83c 9581 d23e
000003d0: b5ff 923e f858 a33e e221 6e3e 918b 9d3e
000003e0: 5e89 9f3e 182e 913e aa2f a33e fc68 993e
000003f0: 249f 8a3e 5107 1b3e d83e 9f3e d9be aa3e

module.cnn_model.0.bias f4 [10]
0.16494465 0.19885653 0.43404147 0.43445504 -0.013295718 0.17451556 0.5099043 -0.022164034
0.13704784 0.16486014
00000000: 40e7 283e 0ca1 4b3e af3a de3e e470 de3e
00000010: 48d6 59bc 35b4 323e 1789 023f 5991 b5bc
00000020: 4556 0c3e 19d1 283e

module.cnn_model.2.weight f4 [1, 10, 1, 1]
-1.0666525 -0.8765025 0.96483856 0.9283332 0.27591908 -0.97218406 0.77474844 0.2286967
-1.1159371 -0.9185427
00000000: 1288 88bf 7862 60bf a9ff 763f 3fa7 6d3f
00000010: 4445 8d3e 0ee1 78bf ea55 463f 782f 6a3e
00000020: 07d7 8ebf 9d25 6bbf
