annotator/static/models/too_628cc9db8a193c22ab477faf.pth (torch, 152799 bytes, 3 tensors)

module.cnn_model.0.weight f4 [10, 1, 49, 77]
00000000: b985 fdbe 7a22 03bf 8489 f6be 10db ffbe
00000010: 4b79 f0be 8ebd 04bf 3ea3 02bf 89db 00bf
00000020: 2ca4 f0be 001f f5be 8e0f 01bf fdb8 02bf
00000030: b046 f9be 5afc 03bf 6a46 04bf c556 08bf
00000040: 979e eebe 755d fcbe 8460 05bf 6a34 fdbe
00000050: 2584 06bf 375b fcbe afc8 00bf f486 00bf
00000060: b85e 05bf bdec 07bf 9523 f6be 912c 03bf
00000070: b21e 09bf d437 06bf 3a4e 01bf c5cb ffbe
00000080: 3984 06bf 1850 00bf 234e 03bf 27a2 f9be
00000090: 2bbb ecbe 5f67 febe 2f7d 02bf 8bd8 f8be
000000a0: ac81 01bf 2b44 0fbf 2668 00bf f703 04bf
000000b0: e82a f9be 1abc fcbe fc96 fabe 9f03 09bf
000000c0: aad4 07bf 2af9 f1be b29a f5be 5082 f6be
000000d0: dc9d fdbe 31ab 02bf a461 febe 0af2 f9be
000000e0: 4f63 07bf 0006 02bf 26e7 00bf 4e7e 05bf
000000f0: e495 02bf 7751 f5be a663 ebbe 12a4 05bf
00000100: 9c9f febe 196b 04bf e680 ffbe 7de3 03bf
00000110: 57e8 07bf 8d8c f0be d9d6 f6be ee8f f5be
00000120: e172 fdbe 4ef9 e2be 3dfd f7be 49b3 03bf
00000130: ebc2 f3be 6cb6 6fbe cd9f 10be c4e6 35bd
00000140: 0dd1 d6bd f2c0 d4bd fdd2 c1bd 384d e9bd
00000150: 2a00 f7bd 6a13 8bbd 35a8 48bd ec2d c0bd
00000160: 373d e9bd 84cb e4bd 625c d8bd f55e 0ebe
00000170: 0576 eebd 37cd b6bd 7ab9 4cbd 8f3f e5bd
00000180: 790f aebd e354 74bd bea8 b9bd c9cf 9dbd
00000190: 353b f5bd 9441 22be d534 b5bd 75a2 cfbd
000001a0: f7fe 77bd abe5 84bd 1f05 e1bd 90a9 b3bd
000001b0: c093 bfbd e984 c1bd 19d6 fdbd da73 c9bd
000001c0: 79c2 58bd 8aaa bfbd 4c8f c3bd 9214 a5bd
000001d0: 6a8a b6bd 779b 06be a46f f3bd 7d82 e6bd
000001e0: 1714 b3bd 2296 afbd 2626 95bd 0d68 b8bd
000001f0: e08a 33be d45f 94bd ecb0 7fbd 5569 85bd
00000200: 2f3e d6bd b431 bbbd 1a66 a9bd b5b2 cebc
00000210: 7782 c8bc 84a7 65bc e376 93bc 51f8 41bc
00000220: 2594 16bd 7990 cbbc 7714 c1bc 97db a0bc
00000230: 8f6c 2ebd c3f8 0bbd c0c3 d5bc 038e ddbc
00000240: 347c 1cbd 1369 10bd 0859 babc d1e6 16bd
00000250: d024 61bc 201f 24bd 3bc8 95bc 6f5f febc
00000260: 21c3 27bc 481f 2dbe 873e 67be 6049 a6bd
00000270: 07f6 7dbd 2875 b0bd 7a2d 0dbe a93a a2bd
00000280: 1a12 1dbe c5e4 c3bd e8b7 87bd 1bc3 e1bd
00000290: 81f4 86bd c056 e1bd 1cbe 58bd d472 a7bd
000002a0: 965f 36be bbfb 01be e322 6ebd 19bf babd
000002b0: 41a4 96bd 4554 cdbd 8135 dcbd 084b e1bd
000002c0: 237d bcbd 2467 6abd bf33 6abd 68ee 31bd
000002d0: 9537 d0bc 4525 06be 5da0 29be 20b6 99bd
000002e0: 6c50 79bd 4df7 b0bd 34fd a8bd 339b 8ebd
000002f0: be9a eabd 0bb0 49bd 559a e5bd 4294 97bd
00000300: 869e 14be b870 01be 094a 92bd 7430 89bd
00000310: afdb 02be 6765 54be dac0 a4bd 4d1c b7bd
00000320: c340 03be db37 86bd a751 8cbd e5f8 74bd
00000330: aa2d 8abd 5bb8 01be 503b cdbd c4b6 0fbe
00000340: d1d6 0e3b 62cf 943b 902a 22bc fc71 cbbc
00000350: 8e72 e5bc dc9b 5bbc 80d4 46bc f0ca f7ba
00000360: 6367 e33b 2d3c 4ebc ea7f 1dbd 9be2 35bb
00000370: 1d2f 96bc 179c ccbc 43d0 10bd ff50 3cbc
00000380: 8b49 eabc ba3d 86bc e56c b4bc 7a13 47bc
00000390: 29a3 5f3a 9497 c8bc 9375 12be f751 3bbe
000003a0: 1289 d8bd cc61 84bd 2243 81bd 153c a9bd
000003b0: 5d22 03bd f081 dabd cd2a d2bd edc8 75bd
000003c0: d913 bbbd d306 9fbd dde6 76bd 4ae5 b2bd
000003d0: 5003 90bd 9589 cfbd 3e24 c9bd 6d99 efbd
000003e0: 2762 0abe de14 4ebd 613e d3bd 3632 b2bc
000003f0: c2a0 e7bd 2571 0abd b2c8 8dbd c648 8dbd
-0.49516085 -0.5122448 -0.4815179 -0.4997182 -0.4696754 -0.5185174 -0.5103034 -0.50334984
-0.47000253 -0.47875214 -0.5041436 -0.5106352 -0.48686743 -0.5155693 -0.51669943 -0.532574
-0.4660537 -0.49290052 -0.52100396 -0.4945405 -0.52545387 -0.4928834 -0.5030622 -0.5020592
-0.52097654 -0.5309561 -0.48074022 -0.5123988 -0.5356246 -0.52428937 -0.5050999 -0.4996015
-0.52545506 -0.50122213 -0.512911 -0.48756525 -0.46236548 -0.4968824 -0.50972265 -0.4860271
-0.5058849 -0.5596339 -0.5015892 -0.5156855 -0.48665547 -0.4936226 -0.48943317 -0.5352115
-0.53058875 -0.4726041 -0.47969586 -0.48146296 -0.495345 -0.5104247 -0.4968387 -0.48817474
-0.5288591 -0.50790405 -0.50352705 -0.5214585 -0.51009965 -0.47913715 -0.45974463 -0.52203476
-0.49731147 -0.5172592 -0.4990303 -0.51518995 -0.530889 -0.46982232 -0.4821079 -0.47961372
-0.49501708 -0.4433083 -0.48435393 -0.5144544 -0.47609648 -0.23409432 -0.14123459 -0.04440953
-0.10489092 -0.10388364 -0.09464071 -0.113916814 -0.12060578 -0.06790812 -0.04898854 -0.09383759
-0.11388629 -0.1117163 -0.105644956 -0.1390341 -0.11643604 -0.089258604 -0.04998157 -0.111937635
-0.08499045 -0.059651267 -0.09065388 -0.077056475 -0.119741835 -0.15845329 -0.088479675 -0.10138408
-0.060545888 -0.06489118 -0.10987305 -0.08772576 -0.09354353 -0.09449179 -0.123943515 -0.0983655
-0.05291984 -0.093586996 -0.09548816 -0.08060564 -0.08913119 -0.13145243 -0.11886528 -0.112553574
-0.08744066 -0.085735574 -0.07282667 -0.09004221 -0.17533445 -0.0724484 -0.062424585 -0.06514231
-0.10461079 -0.091403395 -0.082714275 -0.025231699 -0.024476273 -0.01401699 -0.018001026 -0.011838988
-0.036762375 -0.024849163 -0.023569329 -0.019635959 -0.042584 -0.034172785 -0.026094317 -0.027045256
-0.038204387 -0.035256457 -0.022747532 -0.036841217 -0.013741687 -0.040068746 -0.018283954 -0.031051366
-0.010239393 -0.16906464 -0.22582446 -0.08119464 -0.062002208 -0.08616096 -0.13786879 -0.07921345
-0.15338936 -0.09565119 -0.06626874 -0.110235415 -0.06589604 -0.110028744 -0.052915677 -0.081761986
-0.178099 -0.12693684 -0.05813874 -0.0911848 -0.07355548 -0.10025839 -0.107523926 -0.11000639
-0.092035554 -0.05722727 -0.057178255 -0.043440253 -0.025417129 -0.13100155 -0.1656508 -0.07505441
-0.060867712 -0.08640919 -0.0825142 -0.06963196 -0.11455296 -0.049240153 -0.11211077 -0.07401325
-0.14513597 -0.12640655 -0.07143027 -0.06698695 -0.12779115 -0.20741807 -0.08044596 -0.08940945
-0.12817673 -0.06553622 -0.068515114 -0.059807677 -0.06746991 -0.12667982 -0.100210786 -0.14034563
0.002179552 0.0045413235 -0.009897843 -0.024834625 -0.028008725 -0.013403859 -0.012135625 -0.0018905085
0.006939815 -0.012587589 -0.038452066 -0.0027753476 -0.018333012 -0.024976773 -0.035354864 -0.01149392
-0.028599521 -0.016386855 -0.022024581 -0.01215064 0.00085310877 -0.02448634 -0.14302664 -0.18292986
-0.10573019 -0.06463966 -0.06311633 -0.08263413 -0.032015193 -0.10669315 -0.1026207 -0.06000607
-0.09134645 -0.077649735 -0.060278762 -0.0873514 -0.07031882 -0.101336636 -0.09821366 -0.116991855
-0.13514005 -0.05031287 -0.10314632 -0.021752458 -0.11309959 -0.03379931 -0.06923045 -0.06898646

module.cnn_model.0.bias f4 [10]
00000000: 0bee ea3e 45ab 943d a459 0a3f f2d3 a23d
00000010: ed3f 3d3d 93e0 b33d 589e 8c3d 0023 023f
00000020: 3e72 b73d a4aa 9b3d
0.45884737 0.072592296 0.5404303 0.079505816 0.046203543 0.087830685 0.06866139 0.50834656
0.08957337 0.076009065

module.cnn_model.2.weight f4 [1, 10, 1, 1]
00000000: a050 733f a267 74bf ed50 403f dd42 74bf
00000010: 1881 7ebf 638a 56bf 5514 6fbf f0cd 593f
00000020: 3f3e 5fbf ed2c 6fbf
0.950449 -0.9547063 0.7512348 -0.95414525 -0.9941573 -0.8380491 -0.933904 0.8507986
-0.87204355 -0.93427926
