annotator/static/models/what_62389b14c3f2c6a63cc03eeb.pth (torch, 54935 bytes, 3 tensors)

cnn_model.0.weight f4 [10, 1, 25, 53]
-0.85549384 -0.7845084 -0.7608563 -0.6951883 -0.75440586 -0.78360677 -0.7490186 -0.72618854
-0.7022129 -0.6947812 -0.78245556 -0.721862 -0.80773914 -0.70994276 -0.74228513 -0.79250866
-0.783848 -0.73111767 -0.8023519 -0.792767 -0.79019785 -0.8077982 -0.7930002 -0.74244255
-0.77305967 -0.944068 -0.98719144 -1.0266132 -0.93146956 -0.9129918 -0.60751116 -0.65053743
-0.60946304 -0.5920986 -0.5978246 -0.6249684 -0.60007197 -0.9813654 0.5219882 0.55777746
-0.9255396 -0.63605285 -0.5881104 -0.5198412 -0.5879288 -0.5908252 -0.62201643 -0.5682744
-0.5473587 -0.50475025 -0.5391471 -0.6021901 -0.77710295 -0.86756605 -0.7121904 -0.71376795
-0.7806098 -0.7701592 -0.8373406 -0.7511924 -0.6138589 -0.680591 -0.69706196 -0.7355792
-0.795307 -0.75346214 -0.7891623 -0.78526926 -0.7442812 -0.79149735 -0.80950665 -0.8492787
-0.8215069 -0.78127354 -0.79929006 -0.80845946 -0.76188195 -0.77570015 -1.0438339 -1.0793899
-1.0731875 -1.0445118 -0.9397557 -0.25289023 -0.0906204 -0.12521937 -0.10947969 -0.088178374
-0.14534445 -0.097909726 -0.12019937 -0.9284025 0.55077696 -0.9819677 -0.077460475 -0.07038861
-0.1724866 -0.13686682 -0.14010829 -0.1948819 -0.18135273 -0.17608647 -0.43895665 -0.3802722
-0.12604102 -0.7189899 -0.8712368 -0.81010175 -0.7533048 -0.83831334 -0.7887052 -0.7732621
-0.7379454 -0.7556008 -0.823819 -0.8039687 -0.7170192 -0.7782931 -0.8287787 -0.8144638
-0.7564269 -0.8012069 -0.7274835 -0.8158639 -0.79451567 -0.81198555 -0.71537364 -0.76612586
-0.7555947 -0.64625615 -0.7461014 -1.0407053 -0.98944336 -1.0314573 -1.0742329 -1.0818975
-0.5070547 -0.10651566 -0.052952677 -0.09308129 -0.13115174 -0.16318214 -0.12828885 -0.09624615
-0.119615525 -0.736716 -0.115423076 -0.16877215 -0.07253196 -0.06335038 -0.089239106 -0.10593438
-0.1408427 -0.1310624 -0.11247738 -0.046995748 -0.06025543 -0.09793657 -0.76258975 -0.8339876
-0.775273 -0.761011 -0.69852126 -0.82217157 -0.78929365 -0.7840981 -0.7416954 -0.759658
-0.75458956 -0.796346 -0.7858016 -0.7646255 -0.81234527 -0.75075054 -0.7821069 -0.76383466
-0.7240353 -0.8164095 -0.83236635 -0.7742856 -0.81860507 -0.7753642 -0.81123734 -0.8374347
-1.0586252 -1.1122029 -1.0648646 -1.0057064 -1.0894011 -0.45398206 -0.116628096 -0.06399468
-0.11872018 -0.08004341 -0.08674662 -0.10112916 -0.06523522 -0.08354913 -0.15910885 -0.14840119
-0.13023318 -0.092032805 -0.056581363 -0.07877312 -0.1343108 -0.041041482 -0.11451226 -0.043056592
-0.10426225 -0.08888256 -0.14724192 -0.7419675 -0.87960374 -0.759581 -0.72222835 -0.7366813
-0.7529414 -0.8281333 -0.77697325 -0.75992537 -0.71389234 -0.7719131 -0.75392723 -0.75855815
-0.71980685 -0.79060787 -0.8144578 -0.8574218 -0.7723271 -0.77632266 -0.81294763 -0.7810428
-0.8105103 -0.5615541 -0.6276762 -0.72834 -0.8336366 -1.0688971 -1.0334878 -1.0404835
-1.0755432 -1.0175406 -0.44195977 -0.06879245 -0.084539436 -0.12104472 -0.12922461 -0.052884184
-0.15576112 -0.13567802 -0.10631538 -0.12779392 -0.1439653 -0.08802575 -0.16893181 -0.17261359
00000000: a501 5bbf 8bd5 48bf 7ac7 42bf dcf7 31bf
00000010: be20 41bf 749a 48bf afbf 3fbf 7ee7 39bf
00000020: 3ac4 33bf 2edd 31bf 024f 48bf f3cb 38bf
00000030: fec7 4ebf cfbe 35bf 6606 3ebf d9e1 4abf
00000040: 43aa 48bf 872a 3bbf ef66 4dbf c7f2 4abf
00000050: 684a 4abf ddcb 4ebf 1002 4bbf b710 3ebf
00000060: 3de7 45bf 71ae 71bf 94b8 7cbf 1068 83bf
00000070: ca74 6ebf d5b9 69bf da85 1bbf 9f89 26bf
00000080: c505 1cbf c693 17bf 080b 19bf eefd 1fbf
00000090: 519e 19bf c33a 7bbf 05a1 053f 81ca 0e3f
000000a0: 2af0 6cbf 5cd4 22bf 678e 16bf 5014 05bf
000000b0: 8082 16bf 5240 17bf 783c 1fbf 6e7a 11bf
000000c0: b31f 0cbf 5037 01bf 8b05 0abf 2129 1abf
000000d0: 38f0 46bf cf18 5ebf 1c52 36bf 7fb9 36bf
000000e0: 0bd6 47bf 2729 45bf f45b 56bf 254e 40bf
000000f0: db25 1dbf 363b 2ebf a772 32bf eb4e 3cbf
00000100: 3d99 4bbf e5e2 40bf 8a06 4abf 6807 49bf
00000110: 3689 3ebf 929f 4abf d43b 4fbf 546a 59bf
00000120: 474e 52bf 8b01 48bf 469e 4cbf 33f7 4ebf
00000130: b20a 43bf 4994 46bf 599c 85bf 7329 8abf
00000140: 355e 89bf 90b2 85bf d493 70bf d47a 81be
00000150: 3097 b9bd 8239 00be e336 e0bd dd96 b4bd
00000160: 2dd5 14be e584 c8bd 162b f6bd c9ab 6dbf
00000170: b8ff 0c3f 3c62 7bbf 99a3 9ebd e727 90bd
00000180: 54a0 30be d126 0cbe 8c78 0fbe 1f8f 47be
00000190: 88b4 39be 0350 34be edbe e0be 0ab3 c2be
000001a0: e610 01be b90f 38bf 6009 5fbf d462 4fbf
000001b0: 95d8 40bf b49b 56bf 96e8 49bf 81f4 45bf
000001c0: fde9 3cbf 0e6f 41bf cde5 52bf e5d0 4dbf
000001d0: 928e 37bf 373e 47bf d72a 54bf b380 50bf
000001e0: 31a5 41bf e51b 4dbf 5c3c 3abf 75dc 50bf
000001f0: 6165 4bbf 49de 4fbf ba22 37bf d320 44bf
00000200: a76e 41bf 0b71 25bf 8000 3fbf d535 85bf
00000210: 294c 7dbf cb06 84bf 7780 89bf 9e7b 8abf
00000220: 56ce 01bf e224 dabd e8e4 58bd 67a1 bebd
00000230: a44c 06be 3819 27be 275e 03be b41c c5bd
00000240: fcf8 f4bd 6b99 3cbf ef62 ecbd 9bd2 2cbe
00000250: a38b 94bd d8bd 81bd fec2 b6bd 20f4 d8bd
00000260: 1239 10be 3935 06be 8a5a e6bd 9d7e 40bd
00000270: 66ce 76bd f892 c8bd 1539 43bf 3680 55bf
00000280: 4b78 46bf 9ed1 42bf 4ad2 32bf d679 52bf
00000290: 260f 4abf a7ba 48bf c0df 3dbf f278 42bf
000002a0: c82c 41bf 55dd 4bbf 4b2a 49bf 7fbe 43bf
000002b0: dcf5 4fbf 3031 40bf 2838 48bf ab8a 43bf
000002c0: 615a 39bf 3700 51bf f615 55bf 9537 46bf
000002d0: 1a90 51bf 457e 46bf 40ad 4fbf 1f62 56bf
000002e0: 0881 87bf aa5c 8ebf 7c4d 88bf fdba 80bf
000002f0: 7f71 8bbf 5670 e8be b6da eebd a50f 83bd
00000300: 9123 f3bd cded a3bd 36a8 b1bd ce1c cfbd
00000310: 0b9a 85bd ce1b abbd 6eed 22be 7bf6 17be
00000320: d95b 05be b27b bcbd dcc1 67bd cd53 a1bd
00000330: c588 09be 1d1b 28bd 6785 eabd 1c5c 30bd
00000340: 7287 d5bd 0f08 b6bd 96c6 16be 95f1 3dbf
00000350: b62d 61bf e773 42bf f5e3 38bf 2597 3cbf
00000360: c5c0 40bf 8b00 54bf b8e7 46bf 788a 42bf
00000370: a6c1 36bf 199c 45bf 6001 41bf de30 42bf
00000380: 4345 38bf 4765 4abf 4e80 50bf ff7f 5bbf
00000390: 3bb7 45bf 15bd 46bf 561d 50bf 6cf2 47bf
000003a0: 9a7d 4fbf 02c2 0fbf 63af 20bf 7e74 3abf
000003b0: 3569 55bf 9fd1 88bf 5449 84bf 902e 85bf
000003c0: 66ab 89bf c53e 82bf 8d48 e2be 0ee3 8cbd
000003d0: 0323 adbd 4be6 f7bd 7553 04be 169d 58bd
000003e0: d87f 1fbe 2eef 0abe e1bb d9bd 69dc 02be
000003f0: a46b 13be d846 b4bd 76fc 2cbe 9ec1 30be

cnn_model.0.bias f4 [10]
0.46173918 -0.01609678 0.43224427 0.47509667 0.45590857 0.5772481 0.4742704 0.3820447
0.39815828 0.40677804
00000000: 1469 ec3e 65dd 83bc 1f4f dd3e df3f f33e
00000010: d96c e93e 88c6 133f 92d3 f23e 5d9b c33e
00000020: 67db cb3e 3645 d03e

cnn_model.2.weight f4 [1, 10, 1, 1]
1.0136535 0.19515328 1.0775139 0.93122995 1.0666044 0.79541343 1.05025 -1.3206242
-1.1859317 -1.1072477
00000000: 66bf 813f 43d6 473e faeb 893f 1665 6e3f
00000010: 7e86 883f 37a0 4b3f 986e 863f 370a a9bf
00000020: 9ccc 97bf 4bba 8dbf
