annotator/static/models/you_62389b14c3f2c6a63cc03eeb.pth (torch, 64919 bytes, 3 tensors)

cnn_model.0.weight f4 [10, 1, 35, 45]
000000 9d a7 54 3b 9f 25 b5 bc a4 74 57 bc af 6f 31 3b
       0.0032448538 -0.022112666 -0.013150368 0.0027074625
000010 2a bd 8a 3c 1d e6 b5 bc 34 09 f8 bb 6d 7a 7a 3c
       0.016935904 -0.022204453 -0.0075694565 0.015287978
000020 97 83 5f 3b 9c 22 0e bc 73 a0 9b bb ba 73 15 3b
       0.0034105533 -0.008675244 -0.0047493516 0.0022804574
000030 07 23 ce 3b cb e9 17 bc 0c bb 87 bb 4f 51 28 3b
       0.0062907967 -0.009272049 -0.004142171 0.002568323
000040 dc 25 ec bc ff 0c 61 b9 1c e4 16 bc 86 3c c3 bb
       -0.028826647 -0.00021462514 -0.009209659 -0.0059581427
000050 b6 ea bd bb 3d 8d c7 bc a0 81 31 bc 2f ca 47 bc
       -0.005795802 -0.02435934 -0.010834128 -0.0121942
000060 29 19 8d 3c a5 9d 93 3c 76 b6 30 bb ef c9 50 3b
       0.017223911 0.018019507 -0.0026964224 0.0031858643
000070 4f 1d f7 bc 49 a5 98 b9 62 2e 5d 3c cf bd 93 3c
       -0.030165343 -0.00029114846 0.013499828 0.018034844
000080 94 0d 49 bc 56 1e 2c bc 5f 53 e4 3a 0c d0 21 bc
       -0.012271304 -0.0105052795 0.0017419866 -0.009876262
000090 a8 e4 e6 bb 72 f2 47 3a f8 d7 cf 3b 94 fe 12 bc
       -0.007046301 0.0007627375 0.006342884 -0.008971829
0000a0 e1 a4 b5 bc e5 21 c7 3a b9 50 20 bc b9 b9 a0 ba
       -0.022173347 0.0015192596 -0.009784871 -0.0012262381
0000b0 c3 30 4e bc b5 f5 72 3c 2d d6 4a bc 28 42 1a 3b
       -0.012584868 0.014829089 -0.012380165 0.0023537967
0000c0 c9 9b 8e bc f4 b7 63 bb a4 03 54 3c d6 0d 88 3c
       -0.017408269 -0.0034747096 0.012940321 0.01660816
0000d0 e6 17 c8 bc b2 7b 8f 3c cf b2 89 3c cc ad 7c 3c
       -0.024425458 0.017515037 0.016808895 0.015422296
0000e0 e1 30 8e bc b7 29 d7 bc d3 da 9f bc 3f 5e c0 bc
       -0.017357292 -0.026265008 -0.019513523 -0.02348244
0000f0 ab c2 68 bc 06 db b3 3a 72 24 91 bc 9f 37 3e 3a
       -0.014206569 0.001372189 -0.017717574 0.0007256213
000100 62 94 be bc cc b6 8f 3b db c4 41 bc f2 a1 62 bc
       -0.023264114 0.0043858048 -0.011826719 -0.013832556
000110 9b 7c 4f 3c 64 e6 3e 3c 55 23 1e 3c 75 71 c5 bc
       0.012663986 0.011651609 0.0096519785 -0.024101952
000120 7e 01 27 3c c8 ec 80 bb 90 22 a1 bb 7a 3c ce bc
       0.010193227 -0.0039344765 -0.0049174502 -0.025175322
000130 db c1 11 bc b0 98 5f 3c 72 3e 2e bc ee f2 7e 3b
       -0.008896316 0.013647243 -0.010635005 0.0038902122
000140 06 c9 93 3c cc 41 85 3b 8b c0 4d bc 13 fa 4e 3c
       0.018040191 0.0040666815 -0.012558113 0.0126328645
000150 c6 88 a5 bc fe 2e 55 bc 5f f1 ca bc f6 dc aa bb
       -0.02020682 -0.013011692 -0.024773298 -0.005214329
000160 ec e8 e7 bc 62 e0 aa bc 4a 64 81 3c 38 c7 fa bc
       -0.028309308 -0.020858947 0.015794892 -0.030612573
000170 e4 5b 49 3c d2 b5 9a 3b b1 c9 3e 3b a7 88 4e bc
       0.012289975 0.0047213817 0.0029111917 -0.012605823
000180 77 8f 27 bc c3 26 33 3b ea 7d eb 3b bb 1e ff ba
       -0.010227076 0.0027336336 0.007186641 -0.0019464114
000190 c3 ee 75 3b 42 80 f7 3a fe 5e 96 3c 0e 83 4d bc
       0.0037526346 0.0018882828 0.018355843 -0.012543453
0001a0 c7 c8 d6 bc 77 6b 94 bc 7c 08 19 bc 27 c5 7e 3c
       -0.026218785 -0.01811765 -0.009340402 0.0155499345
0001b0 f0 fc 91 3a e5 18 ab bc 50 a7 55 3b e3 c9 7a 3c
       0.0011138003 -0.020885894 0.0032600947 0.015306923
0001c0 86 e3 93 3b e5 42 59 3c d1 13 1e 3c 0c f5 6d bb
       0.004513207 0.013260578 0.009648279 -0.003630939
0001d0 ed 16 da bc aa f5 e5 bb 0f f9 cb bb b3 96 ea bc
       -0.02662226 -0.007017811 -0.0062247585 -0.028636312
0001e0 8f 84 67 bc c0 da 12 b9 9c ab fd bb 49 d2 dd 3b
       -0.0141307255 -0.00014005136 -0.0077414047 0.0067694527
0001f0 29 14 82 3c cb 8b 50 bc bd a5 6d 3c 37 b4 64 bb
       0.015878754 -0.012728642 0.014504847 -0.0034897455
000200 f6 58 a3 3b a8 75 86 bc c1 8b 73 bc c8 17 00 bc
       0.00498497 -0.016413525 -0.014864863 -0.00781817
000210 c0 9e d1 3b bf 9f 50 3c 52 83 e7 bc 1c f6 8a 3c
       0.0063970983 0.012733399 -0.02826086 0.016963057
000220 3b 09 58 bc ee 91 4a 3c 9c 10 00 3c 41 01 ed bc
       -0.013185794 0.012363894 0.00781646 -0.028931262
000230 cf 84 e8 3a a4 6c 90 bc 3c c0 b3 bb ba 05 48 bc
       0.0017739775 -0.017629929 -0.0054855626 -0.012208397
000240 a9 69 aa bc a5 00 c2 bc 9d ec 55 bb 97 b1 9b bc
       -0.020802336 -0.023681948 -0.0032642253 -0.01900558
000250 0b 7f d7 bc 8e 15 94 3a 25 64 8a bc c9 87 55 3c
       -0.026305696 0.0011297928 -0.016893456 0.013032862
000260 00 b0 f9 bb 8c d7 e6 3b 08 d7 1c bb f0 9d 0f bc
       -0.007619858 0.007044738 -0.002393188 -0.008765683
000270 29 da 7e bc 55 5b 4c bb bc 00 f8 bc 8c 46 d3 3a
       -0.015554943 -0.0031182368 -0.030273788 0.0016119047
000280 19 61 7a bc e2 94 bd bc 48 15 86 3c e9 4a e8 bc
       -0.015281939 -0.023142282 0.01636757 -0.028356032
000290 b3 9b 83 bc 5b f9 67 3c 3c 1b 15 bc ee 35 97 bc
       -0.016065454 0.014158572 -0.009100731 -0.018458333
0002a0 7e 76 d7 bc cf d3 5c 3c d2 28 c6 bc 9e 8a 5d bc
       -0.026301619 0.0134782335 -0.024189387 -0.013521818
0002b0 26 35 c2 bc 3e c2 51 3c fe 4f e2 bc 99 90 84 3c
       -0.023706984 0.012802659 -0.027626034 0.01618223
0002c0 dd c3 a8 3b a1 c2 18 3c f3 af a6 bc 7f c3 6f 3b
       0.005150302 0.009323747 -0.020347571 0.003658503
0002d0 4a 82 9d 3b da 4b 11 bc ba a4 ce 3b 46 1f 65 bc
       0.0048067914 -0.008868182 0.006306258 -0.013984507
0002e0 fb 14 1e 3b 1c 6c 64 39 a3 df 54 3b c3 b4 c5 bc
       0.0024121392 0.00021784048 0.003248193 -0.024134045
0002f0 84 81 21 bc 0d 34 3b 3c 71 2a f5 3b f1 07 f9 bc
       -0.009857539 0.011425984 0.007481866 -0.030399295
000300 12 da 02 3c a1 97 39 bc 6f 3c 7f bc 69 db 16 3a
       0.007986562 -0.011327655 -0.015578373 0.00057547406
000310 0d 63 0e bc ff 8c 81 ba 16 60 ac bc 1c b5 fe bc
       -0.008690608 -0.0009883939 -0.021041911 -0.031092219
000320 15 ca b6 bc 86 b0 89 3b 89 bc a6 bc 41 a9 8b 3b
       -0.022313157 0.0042019514 -0.020353572 0.00426212
000330 19 02 b5 bc ce 2e e1 bc 57 c7 18 bc 4e 03 20 3c
       -0.022095727 -0.027488139 -0.00932487 0.009766413
000340 e9 1a 02 3b f4 d8 44 ba 92 9e 97 bc d5 e8 70 bb
       0.0019852465 -0.0007509135 -0.01850823 -0.0036759872
000350 a9 84 c2 bc 5b 13 33 3c 95 b5 4d 3c 06 f5 88 3c
       -0.023744898 0.010929908 0.0125555 0.016718399
000360 41 5d 6e 3c 9c 0d ca bc 8e 7f 94 bc a6 0c b8 bc
       0.014548601 -0.024664693 -0.018127229 -0.022466969
000370 09 ab c1 3b ce 3c 42 3c 40 41 60 3c 26 2a fd 3b
       0.0059102816 0.011855317 0.013687432 0.0077259718
000380 c8 75 7e bb ea ff e9 bb e3 17 f1 bc 60 9c b6 bc
       -0.0038827527 -0.007141103 -0.029430335 -0.022291362
000390 4a c5 9a 3c 61 2e d6 bc 4c 68 dc bc cd bb f7 bc
       0.018892903 -0.026145162 -0.026905201 -0.030240918
0003a0 8f 5d 8a b9 e2 af e7 3a 8b a8 7e bb 7a f9 ac bc
       -0.00026391118 0.0017676319 -0.0038857784 -0.021115053
0003b0 e4 06 87 3c 21 ee 13 bc e9 5c d4 bc 5d 76 94 3c
       0.016482778 -0.009028942 -0.02592321 0.018122846
0003c0 fd 49 1b bc 82 27 37 bc 83 f6 8d ba a3 a7 25 3b
       -0.009478089 -0.011178853 -0.0010830913 0.0025276921
0003d0 d8 85 e6 bb 24 51 25 bc 9c 01 6b bc 34 93 34 3b
       -0.0070349984 -0.010090146 -0.014343645 0.002755356
0003e0 1e 0a 9e bc fe 65 1f 3c 61 3b 96 3b 39 53 1a 3a
       -0.019291934 0.009728907 0.0045847152 0.0005887035
0003f0 d1 0e 53 3c e2 1d 43 3b da 32 90 3b 38 72 b0 bc
       0.0128819505 0.002977245 0.004400593 -0.021538839

cnn_model.0.bias f4 [10]
000000 62 85 da bc e9 4a 9d 3e 2a db 97 3f 20 f9 a2 3e
       -0.02667493 0.30721214 1.1863759 0.31830692
000010 51 30 91 3e 85 74 00 bd 5b c9 93 3f 34 60 89 3e
       0.28357175 -0.03136112 1.1545824 0.2683121
000020 77 ff a0 ba c8 d2 dd 3b
       -0.0012283166 0.006769512

cnn_model.2.weight f4 [1, 10, 1, 1]
000000 c7 bf ae 3d 6d 48 a5 bf 8b 56 ae 3f 64 43 b0 bf
       0.085326724 -1.2912728 1.3620161 -1.3770566
000010 ad fd b9 bf 92 67 fd 3d 35 fc b0 3f be c0 c1 bf
       -1.4530541 0.1237327 1.3826967 -1.5136945
000020 ea 04 7a 3e 23 c1 19 3e
       0.24415937 0.15015082
